date and time :  Tue Jan 26 20:46:01 2021
Namespace(batch_size=16, dataset='R52', debug=False, device=0, dropout=0.4, early_stop=20, epochs=400, filename='', hidden_dim=300, lda=False, lr=0.0005, num_layers=3, num_mlp_layers=1, random_vec=True, seed=0, weight_decay=1e-05)
device :  cuda:0
HGNNModel(
  (word_embeddings): Embedding(9333, 300, padding_idx=0)
  (h_gnn_layers): ModuleList(
    (0): HGNNLayer(
      (dropout): Dropout(p=0.4, inplace=False)
      (mlp): MLP(
        (linears): ModuleList(
          (0): Linear(in_features=300, out_features=300, bias=True)
        )
        (batch_norms): ModuleList()
        (dropout): Dropout(p=0.4, inplace=False)
      )
      (batch_norms): BatchNorm1d(300, eps=1e-05, momentum=0.1, affine=True, track_running_stats=True)
      (gru): GRUCellMod(
        (W_ir): Linear(in_features=300, out_features=300, bias=True)
        (W_hr): Linear(in_features=300, out_features=300, bias=True)
        (W_in): Linear(in_features=300, out_features=300, bias=True)
        (W_hn): Linear(in_features=300, out_features=300, bias=True)
        (W_iz): Linear(in_features=300, out_features=300, bias=True)
        (W_hz): Linear(in_features=300, out_features=300, bias=True)
      )
    )
    (1): HGNNLayer(
      (dropout): Dropout(p=0.4, inplace=False)
      (mlp): MLP(
        (linears): ModuleList(
          (0): Linear(in_features=300, out_features=300, bias=True)
        )
        (batch_norms): ModuleList()
        (dropout): Dropout(p=0.4, inplace=False)
      )
      (batch_norms): BatchNorm1d(300, eps=1e-05, momentum=0.1, affine=True, track_running_stats=True)
      (gru): GRUCellMod(
        (W_ir): Linear(in_features=300, out_features=300, bias=True)
        (W_hr): Linear(in_features=300, out_features=300, bias=True)
        (W_in): Linear(in_features=300, out_features=300, bias=True)
        (W_hn): Linear(in_features=300, out_features=300, bias=True)
        (W_iz): Linear(in_features=300, out_features=300, bias=True)
        (W_hz): Linear(in_features=300, out_features=300, bias=True)
      )
    )
  )
  (linears_prediction): ModuleList(
    (0): Linear(in_features=300, out_features=52, bias=True)
    (1): Linear(in_features=300, out_features=52, bias=True)
    (2): Linear(in_features=300, out_features=52, bias=True)
  )
  (attention): ModuleList(
    (0): Attention(
      (linears): ModuleList(
        (0): Linear(in_features=300, out_features=300, bias=False)
        (1): Linear(in_features=300, out_features=1, bias=False)
      )
    )
    (1): Attention(
      (linears): ModuleList(
        (0): Linear(in_features=300, out_features=300, bias=False)
        (1): Linear(in_features=300, out_features=1, bias=False)
      )
    )
    (2): Attention(
      (linears): ModuleList(
        (0): Linear(in_features=300, out_features=300, bias=False)
        (1): Linear(in_features=300, out_features=1, bias=False)
      )
    )
  )
  (dropout): Dropout(p=0.4, inplace=False)
)
Epoch :  1 loss training:  359.8509321315214 Time :  13
accuracy train: 0.922764 val: 0.870427 test: 0.859144
max validation accuracy : 0.870427 max acc epoch : 1.000000 test accuracy : 0.859144

Epoch :  2 loss training:  128.46389277651906 Time :  22
accuracy train: 0.970698 val: 0.903963 test: 0.891440
…
