date and time :  Thu Apr 15 23:34:27 2021
Namespace(batch_size=64, dataset='R8', debug=False, device=0, dropout=0.4, early_stop=20, epochs=400, filename='', hidden_dim=200, lda=False, lr=0.001, num_layers=3, num_mlp_layers=2, random_vec=False, seed=0, weight_decay=1e-07)
device :  cuda:0
HGNNModel(
  (word_embeddings): Embedding(8232, 300, padding_idx=0)
  (h_gnn_layers): ModuleList(
    (0): HGNNLayer(
      (dropout): Dropout(p=0.4, inplace=False)
      (mlp): MLP(
        (linears): ModuleList(
          (0): Linear(in_features=300, out_features=200, bias=True)
          (1): Linear(in_features=200, out_features=200, bias=True)
        )
        (batch_norms): ModuleList(
          (0): BatchNorm1d(200, eps=1e-05, momentum=0.1, affine=True, track_running_stats=True)
        )
        (dropout): Dropout(p=0.4, inplace=False)
      )
      (mlp2): MLP(
        (linears): ModuleList(
          (0): Linear(in_features=200, out_features=200, bias=True)
          (1): Linear(in_features=200, out_features=200, bias=True)
        )
        (batch_norms): ModuleList(
          (0): BatchNorm1d(200, eps=1e-05, momentum=0.1, affine=True, track_running_stats=True)
        )
        (dropout): Dropout(p=0.4, inplace=False)
      )
      (batch_norms): BatchNorm1d(200, eps=1e-05, momentum=0.1, affine=True, track_running_stats=True)
      (gru): GRUCellMod(
        (W_ir): Linear(in_features=200, out_features=200, bias=True)
        (W_hr): Linear(in_features=200, out_features=200, bias=True)
        (W_in): Linear(in_features=200, out_features=200, bias=True)
        (W_hn): Linear(in_features=200, out_features=200, bias=True)
        (W_iz): Linear(in_features=200, out_features=200, bias=True)
        (W_hz): Linear(in_features=200, out_features=200, bias=True)
      )
    )
    (1): HGNNLayer(
      (dropout): Dropout(p=0.4, inplace=False)
      (mlp): MLP(
        (linears): ModuleList(
          (0): Linear(in_features=200, out_features=200, bias=True)
          (1): Linear(in_features=200, out_features=200, bias=True)
        )
        (batch_norms): ModuleList(
          (0): BatchNorm1d(200, eps=1e-05, momentum=0.1, affine=True, track_running_stats=True)
        )
        (dropout): Dropout(p=0.4, inplace=False)
      )
      (mlp2): MLP(
        (linears): ModuleList(
          (0): Linear(in_features=200, out_features=200, bias=True)
          (1): Linear(in_features=200, out_features=200, bias=True)
        )
        (batch_norms): ModuleList(
          (0): BatchNorm1d(200, eps=1e-05, momentum=0.1, affine=True, track_running_stats=True)
        )
        (dropout): Dropout(p=0.4, inplace=False)
      )
      (batch_norms): BatchNorm1d(200, eps=1e-05, momentum=0.1, affine=True, track_running_stats=True)
      (gru): GRUCellMod(
        (W_ir): Linear(in_features=200, out_features=200, bias=True)
        (W_hr): Linear(in_features=200, out_features=200, bias=True)
        (W_in): Linear(in_features=200, out_features=200, bias=True)
        (W_hn): Linear(in_features=200, out_features=200, bias=True)
        (W_iz): Linear(in_features=200, out_features=200, bias=True)
        (W_hz): Linear(in_features=200, out_features=200, bias=True)
      )
    )
  )
  (linears_prediction): ModuleList(
    (0): Linear(in_features=300, out_features=8, bias=True)
    (1): Linear(in_features=200, out_features=8, bias=True)
    (2): Linear(in_features=200, out_features=8, bias=True)
  )
  (graph_pool_layer): ModuleList(
    (0): Attention(
      (linears): ModuleList(
        (0): Linear(in_features=300, out_features=300, bias=False)
        (1): Linear(in_features=300, out_features=1, bias=False)
      )
    )
    (1): Attention(
      (linears): ModuleList(
        (0): Linear(in_features=200, out_features=200, bias=False)
        (1): Linear(in_features=200, out_features=1, bias=False)
      )
    )
    (2): Attention(
      (linears): ModuleList(
        (0): Linear(in_features=200, out_features=200, bias=False)
        (1): Linear(in_features=200, out_features=1, bias=False)
      )
    )
  )
  (dropout): Dropout(p=0.4, inplace=False)
)
Epoch :  1 loss training:  73.42655223608017 Time :  23
accuracy train: 0.932337 val: 0.914545 test: 0.923288
max validation accuracy : 0.914545 max acc epoch : 1 test accuracy : 0.923288

Epoch :  2 loss training:  27.62844143807888 Time :  43
accuracy train: 0.965260 val: 0.943636 test: 0.956164
…
max validation accuracy :  0.9709090909090909
test accuracy :  0.9698630136986301
last test_accuracy :  0.958904109589041
========================================================================================================================================================================================================

date and time :  Fri Apr 16 00:09:25 2021
Namespace(batch_size=64, dataset='R8', debug=False, device=0, dropout=0.4, early_stop=20, epochs=400, filename='', hidden_dim=200, lda=False, lr=0.001, num_layers=4, num_mlp_layers=1, random_vec=False, seed=0, weight_decay=1e-07)
device :  cuda:0
HGNNModel(
  (word_embeddings): Embedding(8232, 300, padding_idx=0)
  (h_gnn_layers): ModuleList(
    (0): HGNNLayer(
      (dropout): Dropout(p=0.4, inplace=False)
      (mlp): MLP(
        (linears): ModuleList(
          (0): Linear(in_features=300, out_features=200, bias=True)
        )
        (batch_norms): ModuleList()
        (dropout): Dropout(p=0.4, inplace=False)
      )
      (mlp2): MLP(
        (linears): ModuleList(
          (0): Linear(in_features=200, out_features=200, bias=True)
        )
        (batch_norms): ModuleList()
        (dropout): Dropout(p=0.4, inplace=False)
      )
      (batch_norms): BatchNorm1d(200, eps=1e-05, momentum=0.1, affine=True, track_running_stats=True)
      (gru): GRUCellMod(
        (W_ir): Linear(in_features=200, out_features=200, bias=True)
        (W_hr): Linear(in_features=200, out_features=200, bias=True)
        (W_in): Linear(in_features=200, out_features=200, bias=True)
        (W_hn): Linear(in_features=200, out_features=200, bias=True)
        (W_iz): Linear(in_features=200, out_features=200, bias=True)
        (W_hz): Linear(in_features=200, out_features=200, bias=True)
      )
    )
    (1): HGNNLayer(
      (dropout): Dropout(p=0.4, inplace=False)
      (mlp): MLP(
        (linears): ModuleList(
          (0): Linear(in_features=200, out_features=200, bias=True)
        )
        (batch_norms): ModuleList()
        (dropout): Dropout(p=0.4, inplace=False)
      )
      (mlp2): MLP(
        (linears): ModuleList(
          (0): Linear(in_features=200, out_features=200, bias=True)
        )
        (batch_norms): ModuleList()
        (dropout): Dropout(p=0.4, inplace=False)
      )
      (batch_norms): BatchNorm1d(200, eps=1e-05, momentum=0.1, affine=True, track_running_stats=True)
      (gru): GRUCellMod(
        (W_ir): Linear(in_features=200, out_features=200, bias=True)
        (W_hr): Linear(in_features=200, out_features=200, bias=True)
        (W_in): Linear(in_features=200, out_features=200, bias=True)
        (W_hn): Linear(in_features=200, out_features=200, bias=True)
        (W_iz): Linear(in_features=200, out_features=200, bias=True)
        (W_hz): Linear(in_features=200, out_features=200, bias=True)
      )
    )
    (2): HGNNLayer(
      (dropout): Dropout(p=0.4, inplace=False)
      (mlp): MLP(
        (linears): ModuleList(
          (0): Linear(in_features=200, out_features=200, bias=True)
        )
        (batch_norms): ModuleList()
        (dropout): Dropout(p=0.4, inplace=False)
      )
      (mlp2): MLP(
        (linears): ModuleList(
          (0): Linear(in_features=200, out_features=200, bias=True)
        )
        (batch_norms): ModuleList()
        (dropout): Dropout(p=0.4, inplace=False)
      )
      (batch_norms): BatchNorm1d(200, eps=1e-05, momentum=0.1, affine=True, track_running_stats=True)
      (gru): GRUCellMod(
        (W_ir): Linear(in_features=200, out_features=200, bias=True)
        (W_hr): Linear(in_features=200, out_features=200, bias=True)
        (W_in): Linear(in_features=200, out_features=200, bias=True)
        (W_hn): Linear(in_features=200, out_features=200, bias=True)
        (W_iz): Linear(in_features=200, out_features=200, bias=True)
        (W_hz): Linear(in_features=200, out_features=200, bias=True)
      )
    )
  )
  (linears_prediction): ModuleList(
    (0): Linear(in_features=300, out_features=8, bias=True)
    (1): Linear(in_features=200, out_features=8, bias=True)
    (2): Linear(in_features=200, out_features=8, bias=True)
    (3): Linear(in_features=200, out_features=8, bias=True)
  )
  (graph_pool_layer): ModuleList(
    (0): Attention(
      (linears): ModuleList(
        (0): Linear(in_features=300, out_features=300, bias=False)
        (1): Linear(in_features=300, out_features=1, bias=False)
      )
    )
    (1): Attention(
      (linears): ModuleList(
        (0): Linear(in_features=200, out_features=200, bias=False)
        (1): Linear(in_features=200, out_features=1, bias=False)
      )
    )
    (2): Attention(
      (linears): ModuleList(
        (0): Linear(in_features=200, out_features=200, bias=False)
        (1): Linear(in_features=200, out_features=1, bias=False)
      )
    )
    (3): Attention(
      (linears): ModuleList(
        (0): Linear(in_features=200, out_features=200, bias=False)
        (1): Linear(in_features=200, out_features=1, bias=False)
      )
    )
  )
  (dropout): Dropout(p=0.4, inplace=False)
)
Epoch :  1 loss training:  69.18651804327965 Time :  30
accuracy train: 0.946879 val: 0.934545 test: 0.936530
max validation accuracy : 0.934545 max acc epoch : 1 test accuracy : 0.936530

Epoch :  2 loss training:  24.81257764995098 Time :  63
accuracy train: 0.964250 val: 0.943636 test: 0.961187
…
max validation accuracy :  0.9836363636363636
test accuracy :  0.9712328767123287
last test_accuracy :  0.9671232876712329
========================================================================================================================================================================================================

date and time :  Fri Apr 16 01:08:03 2021
Namespace(batch_size=64, dataset='R8', debug=False, device=0, dropout=0.4, early_stop=20, epochs=400, filename='', hidden_dim=200, lda=False, lr=0.001, num_layers=4, num_mlp_layers=2, random_vec=False, seed=0, weight_decay=1e-07)
device :  cuda:0
HGNNModel(
  (word_embeddings): Embedding(8232, 300, padding_idx=0)
  (h_gnn_layers): ModuleList(
    (0): HGNNLayer(
      (dropout): Dropout(p=0.4, inplace=False)
      (mlp): MLP(
        (linears): ModuleList(
          (0): Linear(in_features=300, out_features=200, bias=True)
          (1): Linear(in_features=200, out_features=200, bias=True)
        )
        (batch_norms): ModuleList(
          (0): BatchNorm1d(200, eps=1e-05, momentum=0.1, affine=True, track_running_stats=True)
        )
        (dropout): Dropout(p=0.4, inplace=False)
      )
      (mlp2): MLP(
        (linears): ModuleList(
          (0): Linear(in_features=200, out_features=200, bias=True)
          (1): Linear(in_features=200, out_features=200, bias=True)
        )
        (batch_norms): ModuleList(
          (0): BatchNorm1d(200, eps=1e-05, momentum=0.1, affine=True, track_running_stats=True)
        )
        (dropout): Dropout(p=0.4, inplace=False)
      )
      (batch_norms): BatchNorm1d(200, eps=1e-05, momentum=0.1, affine=True, track_running_stats=True)
      (gru): GRUCellMod(
        (W_ir): Linear(in_features=200, out_features=200, bias=True)
        (W_hr): Linear(in_features=200, out_features=200, bias=True)
        (W_in): Linear(in_features=200, out_features=200, bias=True)
        (W_hn): Linear(in_features=200, out_features=200, bias=True)
        (W_iz): Linear(in_features=200, out_features=200, bias=True)
        (W_hz): Linear(in_features=200, out_features=200, bias=True)
      )
    )
    (1): HGNNLayer(
      (dropout): Dropout(p=0.4, inplace=False)
      (mlp): MLP(
        (linears): ModuleList(
          (0): Linear(in_features=200, out_features=200, bias=True)
          (1): Linear(in_features=200, out_features=200, bias=True)
        )
        (batch_norms): ModuleList(
          (0): BatchNorm1d(200, eps=1e-05, momentum=0.1, affine=True, track_running_stats=True)
        )
        (dropout): Dropout(p=0.4, inplace=False)
      )
      (mlp2): MLP(
        (linears): ModuleList(
          (0): Linear(in_features=200, out_features=200, bias=True)
          (1): Linear(in_features=200, out_features=200, bias=True)
        )
        (batch_norms): ModuleList(
          (0): BatchNorm1d(200, eps=1e-05, momentum=0.1, affine=True, track_running_stats=True)
        )
        (dropout): Dropout(p=0.4, inplace=False)
      )
      (batch_norms): BatchNorm1d(200, eps=1e-05, momentum=0.1, affine=True, track_running_stats=True)
      (gru): GRUCellMod(
        (W_ir): Linear(in_features=200, out_features=200, bias=True)
        (W_hr): Linear(in_features=200, out_features=200, bias=True)
        (W_in): Linear(in_features=200, out_features=200, bias=True)
        (W_hn): Linear(in_features=200, out_features=200, bias=True)
        (W_iz): Linear(in_features=200, out_features=200, bias=True)
        (W_hz): Linear(in_features=200, out_features=200, bias=True)
      )
    )
    (2): HGNNLayer(
      (dropout): Dropout(p=0.4, inplace=False)
      (mlp): MLP(
        (linears): ModuleList(
          (0): Linear(in_features=200, out_features=200, bias=True)
          (1): Linear(in_features=200, out_features=200, bias=True)
        )
        (batch_norms): ModuleList(
          (0): BatchNorm1d(200, eps=1e-05, momentum=0.1, affine=True, track_running_stats=True)
        )
        (dropout): Dropout(p=0.4, inplace=False)
      )
      (mlp2): MLP(
        (linears): ModuleList(
          (0): Linear(in_features=200, out_features=200, bias=True)
          (1): Linear(in_features=200, out_features=200, bias=True)
        )
        (batch_norms): ModuleList(
          (0): BatchNorm1d(200, eps=1e-05, momentum=0.1, affine=True, track_running_stats=True)
        )
        (dropout): Dropout(p=0.4, inplace=False)
      )
      (batch_norms): BatchNorm1d(200, eps=1e-05, momentum=0.1, affine=True, track_running_stats=True)
      (gru): GRUCellMod(
        (W_ir): Linear(in_features=200, out_features=200, bias=True)
        (W_hr): Linear(in_features=200, out_features=200, bias=True)
        (W_in): Linear(in_features=200, out_features=200, bias=True)
        (W_hn): Linear(in_features=200, out_features=200, bias=True)
        (W_iz): Linear(in_features=200, out_features=200, bias=True)
        (W_hz): Linear(in_features=200, out_features=200, bias=True)
      )
    )
  )
  (linears_prediction): ModuleList(
    (0): Linear(in_features=300, out_features=8, bias=True)
    (1): Linear(in_features=200, out_features=8, bias=True)
    (2): Linear(in_features=200, out_features=8, bias=True)
    (3): Linear(in_features=200, out_features=8, bias=True)
  )
  (graph_pool_layer): ModuleList(
    (0): Attention(
      (linears): ModuleList(
        (0): Linear(in_features=300, out_features=300, bias=False)
        (1): Linear(in_features=300, out_features=1, bias=False)
      )
    )
    (1): Attention(
      (linears): ModuleList(
        (0): Linear(in_features=200, out_features=200, bias=False)
        (1): Linear(in_features=200, out_features=1, bias=False)
      )
    )
    (2): Attention(
      (linears): ModuleList(
        (0): Linear(in_features=200, out_features=200, bias=False)
        (1): Linear(in_features=200, out_features=1, bias=False)
      )
    )
    (3): Attention(
      (linears): ModuleList(
        (0): Linear(in_features=200, out_features=200, bias=False)
        (1): Linear(in_features=200, out_features=1, bias=False)
      )
    )
  )
  (dropout): Dropout(p=0.4, inplace=False)
)
Epoch :  1 loss training:  86.03058528900146 Time :  30
accuracy train: 0.916179 val: 0.907273 test: 0.919635
max validation accuracy : 0.907273 max acc epoch : 1 test accuracy : 0.919635

Epoch :  2 loss training:  33.84958979487419 Time :  56
accuracy train: 0.948495 val: 0.945455 test: 0.948858
…
