date and time :  Tue Jan 26 15:44:00 2021
Namespace(batch_size=16, dataset='R52', debug=False, device=0, dropout=0.4, early_stop=20, epochs=400, filename='', hidden_dim=200, lda=False, lr=0.0005, num_layers=3, num_mlp_layers=1, random_vec=False, seed=0, weight_decay=1e-06)
device :  cuda:0
HGNNModel(
  (word_embeddings): Embedding(9333, 300, padding_idx=0)
  (h_gnn_layers): ModuleList(
    (0): HGNNLayer(
      (dropout): Dropout(p=0.4, inplace=False)
      (mlp): MLP(
        (linears): ModuleList(
          (0): Linear(in_features=300, out_features=200, bias=True)
        )
        (batch_norms): ModuleList()
        (dropout): Dropout(p=0.4, inplace=False)
      )
      (batch_norms): BatchNorm1d(200, eps=1e-05, momentum=0.1, affine=True, track_running_stats=True)
      (gru): GRUCellMod(
        (W_ir): Linear(in_features=200, out_features=200, bias=True)
        (W_hr): Linear(in_features=200, out_features=200, bias=True)
        (W_in): Linear(in_features=200, out_features=200, bias=True)
        (W_hn): Linear(in_features=200, out_features=200, bias=True)
        (W_iz): Linear(in_features=200, out_features=200, bias=True)
        (W_hz): Linear(in_features=200, out_features=200, bias=True)
      )
    )
    (1): HGNNLayer(
      (dropout): Dropout(p=0.4, inplace=False)
      (mlp): MLP(
        (linears): ModuleList(
          (0): Linear(in_features=200, out_features=200, bias=True)
        )
        (batch_norms): ModuleList()
        (dropout): Dropout(p=0.4, inplace=False)
      )
      (batch_norms): BatchNorm1d(200, eps=1e-05, momentum=0.1, affine=True, track_running_stats=True)
      (gru): GRUCellMod(
        (W_ir): Linear(in_features=200, out_features=200, bias=True)
        (W_hr): Linear(in_features=200, out_features=200, bias=True)
        (W_in): Linear(in_features=200, out_features=200, bias=True)
        (W_hn): Linear(in_features=200, out_features=200, bias=True)
        (W_iz): Linear(in_features=200, out_features=200, bias=True)
        (W_hz): Linear(in_features=200, out_features=200, bias=True)
      )
    )
  )
  (linears_prediction): ModuleList(
    (0): Linear(in_features=300, out_features=52, bias=True)
    (1): Linear(in_features=200, out_features=52, bias=True)
    (2): Linear(in_features=200, out_features=52, bias=True)
  )
  (attention): ModuleList(
    (0): Attention(
      (linears): ModuleList(
        (0): Linear(in_features=300, out_features=300, bias=False)
        (1): Linear(in_features=300, out_features=1, bias=False)
      )
    )
    (1): Attention(
      (linears): ModuleList(
        (0): Linear(in_features=200, out_features=200, bias=False)
        (1): Linear(in_features=200, out_features=1, bias=False)
      )
    )
    (2): Attention(
      (linears): ModuleList(
        (0): Linear(in_features=200, out_features=200, bias=False)
        (1): Linear(in_features=200, out_features=1, bias=False)
      )
    )
  )
)
Epoch :  1 loss training:  298.71939238067716 Time :  12
accuracy train: 0.923950 val: 0.897866 test: 0.898054
max validation accuracy : 0.8978658536585366 max acc epoch : 1 test accuracy : 0.8980544747081712

Epoch :  2 loss training:  114.32614487828687 Time :  24
accuracy train: 0.951050 val: 0.923780 test: 0.921401
max validation accuracy : 0.9237804878048781 max acc epoch : 2 test accuracy : 0.9214007782101167
…
