date and time :  Tue Apr 13 22:36:00 2021
Namespace(batch_size=64, dataset='R52', debug=False, device=0, dropout=0.5, early_stop=50, epochs=400, filename='', hidden_dim=200, lda=False, lr=0.0005, num_layers=4, num_mlp_layers=1, random_vec=False, seed=0, weight_decay=1e-07)
device :  cuda:0
Counter({0: 9130})
HGNNModel(
  (word_embeddings): Embedding(9334, 300, padding_idx=0)
  (h_gnn_layers): ModuleList(
    (0): HGNNLayer(
      (dropout): Dropout(p=0.5, inplace=False)
      (mlp): MLP(
        (linears): ModuleList(
          (0): Linear(in_features=300, out_features=200, bias=True)
        )
        (batch_norms): ModuleList()
        (dropout): Dropout(p=0.5, inplace=False)
      )
      (mlp2): MLP(
        (linears): ModuleList(
          (0): Linear(in_features=200, out_features=200, bias=True)
        )
        (batch_norms): ModuleList()
        (dropout): Dropout(p=0.5, inplace=False)
      )
      (batch_norms): BatchNorm1d(200, eps=1e-05, momentum=0.1, affine=True, track_running_stats=True)
      (gru): GRUCellMod(
        (W_ir): Linear(in_features=200, out_features=200, bias=True)
        (W_hr): Linear(in_features=200, out_features=200, bias=True)
        (W_in): Linear(in_features=200, out_features=200, bias=True)
        (W_hn): Linear(in_features=200, out_features=200, bias=True)
        (W_iz): Linear(in_features=200, out_features=200, bias=True)
        (W_hz): Linear(in_features=200, out_features=200, bias=True)
      )
    )
    (1): HGNNLayer(
      (dropout): Dropout(p=0.5, inplace=False)
      (mlp): MLP(
        (linears): ModuleList(
          (0): Linear(in_features=200, out_features=200, bias=True)
        )
        (batch_norms): ModuleList()
        (dropout): Dropout(p=0.5, inplace=False)
      )
      (mlp2): MLP(
        (linears): ModuleList(
          (0): Linear(in_features=200, out_features=200, bias=True)
        )
        (batch_norms): ModuleList()
        (dropout): Dropout(p=0.5, inplace=False)
      )
      (batch_norms): BatchNorm1d(200, eps=1e-05, momentum=0.1, affine=True, track_running_stats=True)
      (gru): GRUCellMod(
        (W_ir): Linear(in_features=200, out_features=200, bias=True)
        (W_hr): Linear(in_features=200, out_features=200, bias=True)
        (W_in): Linear(in_features=200, out_features=200, bias=True)
        (W_hn): Linear(in_features=200, out_features=200, bias=True)
        (W_iz): Linear(in_features=200, out_features=200, bias=True)
        (W_hz): Linear(in_features=200, out_features=200, bias=True)
      )
    )
    (2): HGNNLayer(
      (dropout): Dropout(p=0.5, inplace=False)
      (mlp): MLP(
        (linears): ModuleList(
          (0): Linear(in_features=200, out_features=200, bias=True)
        )
        (batch_norms): ModuleList()
        (dropout): Dropout(p=0.5, inplace=False)
      )
      (mlp2): MLP(
        (linears): ModuleList(
          (0): Linear(in_features=200, out_features=200, bias=True)
        )
        (batch_norms): ModuleList()
        (dropout): Dropout(p=0.5, inplace=False)
      )
      (batch_norms): BatchNorm1d(200, eps=1e-05, momentum=0.1, affine=True, track_running_stats=True)
      (gru): GRUCellMod(
        (W_ir): Linear(in_features=200, out_features=200, bias=True)
        (W_hr): Linear(in_features=200, out_features=200, bias=True)
        (W_in): Linear(in_features=200, out_features=200, bias=True)
        (W_hn): Linear(in_features=200, out_features=200, bias=True)
        (W_iz): Linear(in_features=200, out_features=200, bias=True)
        (W_hz): Linear(in_features=200, out_features=200, bias=True)
      )
    )
  )
  (linears_prediction): ModuleList(
    (0): Linear(in_features=300, out_features=52, bias=True)
    (1): Linear(in_features=200, out_features=52, bias=True)
    (2): Linear(in_features=200, out_features=52, bias=True)
    (3): Linear(in_features=200, out_features=52, bias=True)
  )
  (graph_pool_layer): ModuleList(
    (0): Attention(
      (linears): ModuleList(
        (0): Linear(in_features=300, out_features=300, bias=False)
        (1): Linear(in_features=300, out_features=1, bias=False)
      )
    )
    (1): Attention(
      (linears): ModuleList(
        (0): Linear(in_features=200, out_features=200, bias=False)
        (1): Linear(in_features=200, out_features=1, bias=False)
      )
    )
    (2): Attention(
      (linears): ModuleList(
        (0): Linear(in_features=200, out_features=200, bias=False)
        (1): Linear(in_features=200, out_features=1, bias=False)
      )
    )
    (3): Attention(
      (linears): ModuleList(
        (0): Linear(in_features=200, out_features=200, bias=False)
        (1): Linear(in_features=200, out_features=1, bias=False)
      )
    )
  )
  (dropout): Dropout(p=0.5, inplace=False)
)
Epoch :  1 loss training:  282.7910795211792 Time :  30
accuracy train: 0.679370 val: 0.705793 test: 0.756031
max validation accuracy : 0.705793 max acc epoch : 1 test accuracy : 0.756031

Epoch :  2 loss training:  148.6374386548996 Time :  51
accuracy train: 0.794885 val: 0.804878 test: 0.826848
…
