date and time :  Wed Aug 16 21:28:11 2017
Namespace(batch_size=64, dataset='R8', debug=False, device=0, dropout=0.4, early_stop=50, epochs=400, filename='', hidden_dim=200, lda=False, lr=0.001, num_layers=4, num_mlp_layers=2, random_vec=False, seed=0, weight_decay=1e-07)
device :  cuda:0
Counter({5: 1624, 3: 1438, 0: 1372, 7: 1263, 1: 1194, 6: 577, 2: 186, 4: 37})
HGNNModel(
  (word_embeddings): Embedding(8232, 300, padding_idx=0)
  (h_gnn_layers): ModuleList(
    (0): HGNNLayer(
      (dropout): Dropout(p=0.4, inplace=False)
      (mlp): MLP(
        (linears): ModuleList(
          (0): Linear(in_features=300, out_features=200, bias=True)
          (1): Linear(in_features=200, out_features=200, bias=True)
        )
        (batch_norms): ModuleList(
          (0): BatchNorm1d(200, eps=1e-05, momentum=0.1, affine=True, track_running_stats=True)
        )
        (dropout): Dropout(p=0.4, inplace=False)
      )
      (mlp2): MLP(
        (linears): ModuleList(
          (0): Linear(in_features=200, out_features=200, bias=True)
          (1): Linear(in_features=200, out_features=200, bias=True)
        )
        (batch_norms): ModuleList(
          (0): BatchNorm1d(200, eps=1e-05, momentum=0.1, affine=True, track_running_stats=True)
        )
        (dropout): Dropout(p=0.4, inplace=False)
      )
      (batch_norms): BatchNorm1d(200, eps=1e-05, momentum=0.1, affine=True, track_running_stats=True)
      (gru): GRUCellMod(
        (W_ir): Linear(in_features=200, out_features=200, bias=True)
        (W_hr): Linear(in_features=200, out_features=200, bias=True)
        (W_in): Linear(in_features=200, out_features=200, bias=True)
        (W_hn): Linear(in_features=200, out_features=200, bias=True)
        (W_iz): Linear(in_features=200, out_features=200, bias=True)
        (W_hz): Linear(in_features=200, out_features=200, bias=True)
      )
    )
    (1): HGNNLayer(
      (dropout): Dropout(p=0.4, inplace=False)
      (mlp): MLP(
        (linears): ModuleList(
          (0): Linear(in_features=200, out_features=200, bias=True)
          (1): Linear(in_features=200, out_features=200, bias=True)
        )
        (batch_norms): ModuleList(
          (0): BatchNorm1d(200, eps=1e-05, momentum=0.1, affine=True, track_running_stats=True)
        )
        (dropout): Dropout(p=0.4, inplace=False)
      )
      (mlp2): MLP(
        (linears): ModuleList(
          (0): Linear(in_features=200, out_features=200, bias=True)
          (1): Linear(in_features=200, out_features=200, bias=True)
        )
        (batch_norms): ModuleList(
          (0): BatchNorm1d(200, eps=1e-05, momentum=0.1, affine=True, track_running_stats=True)
        )
        (dropout): Dropout(p=0.4, inplace=False)
      )
      (batch_norms): BatchNorm1d(200, eps=1e-05, momentum=0.1, affine=True, track_running_stats=True)
      (gru): GRUCellMod(
        (W_ir): Linear(in_features=200, out_features=200, bias=True)
        (W_hr): Linear(in_features=200, out_features=200, bias=True)
        (W_in): Linear(in_features=200, out_features=200, bias=True)
        (W_hn): Linear(in_features=200, out_features=200, bias=True)
        (W_iz): Linear(in_features=200, out_features=200, bias=True)
        (W_hz): Linear(in_features=200, out_features=200, bias=True)
      )
    )
    (2): HGNNLayer(
      (dropout): Dropout(p=0.4, inplace=False)
      (mlp): MLP(
        (linears): ModuleList(
          (0): Linear(in_features=200, out_features=200, bias=True)
          (1): Linear(in_features=200, out_features=200, bias=True)
        )
        (batch_norms): ModuleList(
          (0): BatchNorm1d(200, eps=1e-05, momentum=0.1, affine=True, track_running_stats=True)
        )
        (dropout): Dropout(p=0.4, inplace=False)
      )
      (mlp2): MLP(
        (linears): ModuleList(
          (0): Linear(in_features=200, out_features=200, bias=True)
          (1): Linear(in_features=200, out_features=200, bias=True)
        )
        (batch_norms): ModuleList(
          (0): BatchNorm1d(200, eps=1e-05, momentum=0.1, affine=True, track_running_stats=True)
        )
        (dropout): Dropout(p=0.4, inplace=False)
      )
      (batch_norms): BatchNorm1d(200, eps=1e-05, momentum=0.1, affine=True, track_running_stats=True)
      (gru): GRUCellMod(
        (W_ir): Linear(in_features=200, out_features=200, bias=True)
        (W_hr): Linear(in_features=200, out_features=200, bias=True)
        (W_in): Linear(in_features=200, out_features=200, bias=True)
        (W_hn): Linear(in_features=200, out_features=200, bias=True)
        (W_iz): Linear(in_features=200, out_features=200, bias=True)
        (W_hz): Linear(in_features=200, out_features=200, bias=True)
      )
    )
  )
  (linears_prediction): ModuleList(
    (0): Linear(in_features=300, out_features=8, bias=True)
    (1): Linear(in_features=200, out_features=8, bias=True)
    (2): Linear(in_features=200, out_features=8, bias=True)
    (3): Linear(in_features=200, out_features=8, bias=True)
  )
  (graph_pool_layer): ModuleList(
    (0): Attention(
      (linears): ModuleList(
        (0): Linear(in_features=300, out_features=300, bias=False)
        (1): Linear(in_features=300, out_features=1, bias=False)
      )
    )
    (1): Attention(
      (linears): ModuleList(
        (0): Linear(in_features=200, out_features=200, bias=False)
        (1): Linear(in_features=200, out_features=1, bias=False)
      )
    )
    (2): Attention(
      (linears): ModuleList(
        (0): Linear(in_features=200, out_features=200, bias=False)
        (1): Linear(in_features=200, out_features=1, bias=False)
      )
    )
    (3): Attention(
      (linears): ModuleList(
        (0): Linear(in_features=200, out_features=200, bias=False)
        (1): Linear(in_features=200, out_features=1, bias=False)
      )
    )
  )
  (dropout): Dropout(p=0.4, inplace=False)
)
Epoch :  1 loss training:  131.47561824321747 Time :  26
accuracy train: 0.834781 val: 0.805455 test: 0.859361
max validation accuracy : 0.805455 max acc epoch : 1 test accuracy : 0.859361
Counter({4: 1266, 1: 1239, 7: 1179, 0: 989, 6: 829, 3: 810, 2: 744, 5: 635})

Epoch :  2 loss training:  51.844732254743576 Time :  51
…
last test_accuracy :  0.9684931506849315
========================================================================================================================================================================================================

date and time :  Wed Aug 16 22:07:19 2017
Namespace(batch_size=64, dataset='R8', debug=False, device=0, dropout=0.4, early_stop=50, epochs=400, filename='', hidden_dim=200, lda=False, lr=0.001, num_layers=5, num_mlp_layers=2, random_vec=False, seed=0, weight_decay=1e-07)
device :  cuda:0
Counter({5: 1624, 3: 1438, 0: 1372, 7: 1263, 1: 1194, 6: 577, 2: 186, 4: 37})
HGNNModel(
  (word_embeddings): Embedding(8232, 300, padding_idx=0)
  (h_gnn_layers): ModuleList(
    (0): HGNNLayer(
      (dropout): Dropout(p=0.4, inplace=False)
      (mlp): MLP(
        (linears): ModuleList(
          (0): Linear(in_features=300, out_features=200, bias=True)
          (1): Linear(in_features=200, out_features=200, bias=True)
        )
        (batch_norms): ModuleList(
          (0): BatchNorm1d(200, eps=1e-05, momentum=0.1, affine=True, track_running_stats=True)
        )
        (dropout): Dropout(p=0.4, inplace=False)
      )
      (mlp2): MLP(
        (linears): ModuleList(
          (0): Linear(in_features=200, out_features=200, bias=True)
          (1): Linear(in_features=200, out_features=200, bias=True)
        )
        (batch_norms): ModuleList(
          (0): BatchNorm1d(200, eps=1e-05, momentum=0.1, affine=True, track_running_stats=True)
        )
        (dropout): Dropout(p=0.4, inplace=False)
      )
      (batch_norms): BatchNorm1d(200, eps=1e-05, momentum=0.1, affine=True, track_running_stats=True)
      (gru): GRUCellMod(
        (W_ir): Linear(in_features=200, out_features=200, bias=True)
        (W_hr): Linear(in_features=200, out_features=200, bias=True)
        (W_in): Linear(in_features=200, out_features=200, bias=True)
        (W_hn): Linear(in_features=200, out_features=200, bias=True)
        (W_iz): Linear(in_features=200, out_features=200, bias=True)
        (W_hz): Linear(in_features=200, out_features=200, bias=True)
      )
    )
    (1): HGNNLayer(
      (dropout): Dropout(p=0.4, inplace=False)
      (mlp): MLP(
        (linears): ModuleList(
          (0): Linear(in_features=200, out_features=200, bias=True)
          (1): Linear(in_features=200, out_features=200, bias=True)
        )
        (batch_norms): ModuleList(
          (0): BatchNorm1d(200, eps=1e-05, momentum=0.1, affine=True, track_running_stats=True)
        )
        (dropout): Dropout(p=0.4, inplace=False)
      )
      (mlp2): MLP(
        (linears): ModuleList(
          (0): Linear(in_features=200, out_features=200, bias=True)
          (1): Linear(in_features=200, out_features=200, bias=True)
        )
        (batch_norms): ModuleList(
          (0): BatchNorm1d(200, eps=1e-05, momentum=0.1, affine=True, track_running_stats=True)
        )
        (dropout): Dropout(p=0.4, inplace=False)
      )
      (batch_norms): BatchNorm1d(200, eps=1e-05, momentum=0.1, affine=True, track_running_stats=True)
      (gru): GRUCellMod(
        (W_ir): Linear(in_features=200, out_features=200, bias=True)
        (W_hr): Linear(in_features=200, out_features=200, bias=True)
        (W_in): Linear(in_features=200, out_features=200, bias=True)
        (W_hn): Linear(in_features=200, out_features=200, bias=True)
        (W_iz): Linear(in_features=200, out_features=200, bias=True)
        (W_hz): Linear(in_features=200, out_features=200, bias=True)
      )
    )
    (2): HGNNLayer(
      (dropout): Dropout(p=0.4, inplace=False)
      (mlp): MLP(
        (linears): ModuleList(
          (0): Linear(in_features=200, out_features=200, bias=True)
          (1): Linear(in_features=200, out_features=200, bias=True)
        )
        (batch_norms): ModuleList(
          (0): BatchNorm1d(200, eps=1e-05, momentum=0.1, affine=True, track_running_stats=True)
        )
        (dropout): Dropout(p=0.4, inplace=False)
      )
      (mlp2): MLP(
        (linears): ModuleList(
          (0): Linear(in_features=200, out_features=200, bias=True)
          (1): Linear(in_features=200, out_features=200, bias=True)
        )
        (batch_norms): ModuleList(
          (0): BatchNorm1d(200, eps=1e-05, momentum=0.1, affine=True, track_running_stats=True)
        )
        (dropout): Dropout(p=0.4, inplace=False)
      )
      (batch_norms): BatchNorm1d(200, eps=1e-05, momentum=0.1, affine=True, track_running_stats=True)
      (gru): GRUCellMod(
        (W_ir): Linear(in_features=200, out_features=200, bias=True)
        (W_hr): Linear(in_features=200, out_features=200, bias=True)
        (W_in): Linear(in_features=200, out_features=200, bias=True)
        (W_hn): Linear(in_features=200, out_features=200, bias=True)
        (W_iz): Linear(in_features=200, out_features=200, bias=True)
        (W_hz): Linear(in_features=200, out_features=200, bias=True)
      )
    )
    (3): HGNNLayer(
      (dropout): Dropout(p=0.4, inplace=False)
      (mlp): MLP(
        (linears): ModuleList(
          (0): Linear(in_features=200, out_features=200, bias=True)
          (1): Linear(in_features=200, out_features=200, bias=True)
        )
        (batch_norms): ModuleList(
          (0): BatchNorm1d(200, eps=1e-05, momentum=0.1, affine=True, track_running_stats=True)
        )
        (dropout): Dropout(p=0.4, inplace=False)
      )
      (mlp2): MLP(
        (linears): ModuleList(
          (0): Linear(in_features=200, out_features=200, bias=True)
          (1): Linear(in_features=200, out_features=200, bias=True)
        )
        (batch_norms): ModuleList(
          (0): BatchNorm1d(200, eps=1e-05, momentum=0.1, affine=True, track_running_stats=True)
        )
        (dropout): Dropout(p=0.4, inplace=False)
      )
      (batch_norms): BatchNorm1d(200, eps=1e-05, momentum=0.1, affine=True, track_running_stats=True)
      (gru): GRUCellMod(
        (W_ir): Linear(in_features=200, out_features=200, bias=True)
        (W_hr): Linear(in_features=200, out_features=200, bias=True)
        (W_in): Linear(in_features=200, out_features=200, bias=True)
        (W_hn): Linear(in_features=200, out_features=200, bias=True)
        (W_iz): Linear(in_features=200, out_features=200, bias=True)
        (W_hz): Linear(in_features=200, out_features=200, bias=True)
      )
    )
  )
  (linears_prediction): ModuleList(
    (0): Linear(in_features=300, out_features=8, bias=True)
    (1): Linear(in_features=200, out_features=8, bias=True)
    (2): Linear(in_features=200, out_features=8, bias=True)
    (3): Linear(in_features=200, out_features=8, bias=True)
    (4): Linear(in_features=200, out_features=8, bias=True)
  )
  (graph_pool_layer): ModuleList(
    (0): Attention(
      (linears): ModuleList(
        (0): Linear(in_features=300, out_features=300, bias=False)
        (1): Linear(in_features=300, out_features=1, bias=False)
      )
    )
    (1): Attention(
      (linears): ModuleList(
        (0): Linear(in_features=200, out_features=200, bias=False)
        (1): Linear(in_features=200, out_features=1, bias=False)
      )
    )
    (2): Attention(
      (linears): ModuleList(
        (0): Linear(in_features=200, out_features=200, bias=False)
        (1): Linear(in_features=200, out_features=1, bias=False)
      )
    )
    (3): Attention(
      (linears): ModuleList(
        (0): Linear(in_features=200, out_features=200, bias=False)
        (1): Linear(in_features=200, out_features=1, bias=False)
      )
    )
    (4): Attention(
      (linears): ModuleList(
        (0): Linear(in_features=200, out_features=200, bias=False)
        (1): Linear(in_features=200, out_features=1, bias=False)
      )
    )
  )
  (dropout): Dropout(p=0.4, inplace=False)
)
Epoch :  1 loss training:  126.58176244795322 Time :  24
accuracy train: 0.837811 val: 0.807273 test: 0.864840
max validation accuracy : 0.807273 max acc epoch : 1 test accuracy : 0.864840
Counter({1: 1361, 4: 1238, 0: 1210, 3: 891, 7: 788, 6: 767, 5: 718, 2: 718})

Epoch :  2 loss training:  48.13384891115129 Time :  45
…
last test_accuracy :  0.9680365296803652
========================================================================================================================================================================================================

date and time :  Wed Aug 16 22:52:50 2017
Namespace(batch_size=64, dataset='R8', debug=False, device=0, dropout=0.4, early_stop=50, epochs=400, filename='', hidden_dim=100, lda=False, lr=0.001, num_layers=4, num_mlp_layers=2, random_vec=False, seed=0, weight_decay=1e-07)
device :  cuda:0
Counter({5: 1624, 3: 1438, 0: 1372, 7: 1263, 1: 1194, 6: 577, 2: 186, 4: 37})
HGNNModel(
  (word_embeddings): Embedding(8232, 300, padding_idx=0)
  (h_gnn_layers): ModuleList(
    (0): HGNNLayer(
      (dropout): Dropout(p=0.4, inplace=False)
      (mlp): MLP(
        (linears): ModuleList(
          (0): Linear(in_features=300, out_features=100, bias=True)
          (1): Linear(in_features=100, out_features=100, bias=True)
        )
        (batch_norms): ModuleList(
          (0): BatchNorm1d(100, eps=1e-05, momentum=0.1, affine=True, track_running_stats=True)
        )
        (dropout): Dropout(p=0.4, inplace=False)
      )
      (mlp2): MLP(
        (linears): ModuleList(
          (0): Linear(in_features=100, out_features=100, bias=True)
          (1): Linear(in_features=100, out_features=100, bias=True)
        )
        (batch_norms): ModuleList(
          (0): BatchNorm1d(100, eps=1e-05, momentum=0.1, affine=True, track_running_stats=True)
        )
        (dropout): Dropout(p=0.4, inplace=False)
      )
      (batch_norms): BatchNorm1d(100, eps=1e-05, momentum=0.1, affine=True, track_running_stats=True)
      (gru): GRUCellMod(
        (W_ir): Linear(in_features=100, out_features=100, bias=True)
        (W_hr): Linear(in_features=100, out_features=100, bias=True)
        (W_in): Linear(in_features=100, out_features=100, bias=True)
        (W_hn): Linear(in_features=100, out_features=100, bias=True)
        (W_iz): Linear(in_features=100, out_features=100, bias=True)
        (W_hz): Linear(in_features=100, out_features=100, bias=True)
      )
    )
    (1): HGNNLayer(
      (dropout): Dropout(p=0.4, inplace=False)
      (mlp): MLP(
        (linears): ModuleList(
          (0): Linear(in_features=100, out_features=100, bias=True)
          (1): Linear(in_features=100, out_features=100, bias=True)
        )
        (batch_norms): ModuleList(
          (0): BatchNorm1d(100, eps=1e-05, momentum=0.1, affine=True, track_running_stats=True)
        )
        (dropout): Dropout(p=0.4, inplace=False)
      )
      (mlp2): MLP(
        (linears): ModuleList(
          (0): Linear(in_features=100, out_features=100, bias=True)
          (1): Linear(in_features=100, out_features=100, bias=True)
        )
        (batch_norms): ModuleList(
          (0): BatchNorm1d(100, eps=1e-05, momentum=0.1, affine=True, track_running_stats=True)
        )
        (dropout): Dropout(p=0.4, inplace=False)
      )
      (batch_norms): BatchNorm1d(100, eps=1e-05, momentum=0.1, affine=True, track_running_stats=True)
      (gru): GRUCellMod(
        (W_ir): Linear(in_features=100, out_features=100, bias=True)
        (W_hr): Linear(in_features=100, out_features=100, bias=True)
        (W_in): Linear(in_features=100, out_features=100, bias=True)
        (W_hn): Linear(in_features=100, out_features=100, bias=True)
        (W_iz): Linear(in_features=100, out_features=100, bias=True)
        (W_hz): Linear(in_features=100, out_features=100, bias=True)
      )
    )
    (2): HGNNLayer(
      (dropout): Dropout(p=0.4, inplace=False)
      (mlp): MLP(
        (linears): ModuleList(
          (0): Linear(in_features=100, out_features=100, bias=True)
          (1): Linear(in_features=100, out_features=100, bias=True)
        )
        (batch_norms): ModuleList(
          (0): BatchNorm1d(100, eps=1e-05, momentum=0.1, affine=True, track_running_stats=True)
        )
        (dropout): Dropout(p=0.4, inplace=False)
      )
      (mlp2): MLP(
        (linears): ModuleList(
          (0): Linear(in_features=100, out_features=100, bias=True)
          (1): Linear(in_features=100, out_features=100, bias=True)
        )
        (batch_norms): ModuleList(
          (0): BatchNorm1d(100, eps=1e-05, momentum=0.1, affine=True, track_running_stats=True)
        )
        (dropout): Dropout(p=0.4, inplace=False)
      )
      (batch_norms): BatchNorm1d(100, eps=1e-05, momentum=0.1, affine=True, track_running_stats=True)
      (gru): GRUCellMod(
        (W_ir): Linear(in_features=100, out_features=100, bias=True)
        (W_hr): Linear(in_features=100, out_features=100, bias=True)
        (W_in): Linear(in_features=100, out_features=100, bias=True)
        (W_hn): Linear(in_features=100, out_features=100, bias=True)
        (W_iz): Linear(in_features=100, out_features=100, bias=True)
        (W_hz): Linear(in_features=100, out_features=100, bias=True)
      )
    )
  )
  (linears_prediction): ModuleList(
    (0): Linear(in_features=300, out_features=8, bias=True)
    (1): Linear(in_features=100, out_features=8, bias=True)
    (2): Linear(in_features=100, out_features=8, bias=True)
    (3): Linear(in_features=100, out_features=8, bias=True)
  )
  (graph_pool_layer): ModuleList(
    (0): Attention(
      (linears): ModuleList(
        (0): Linear(in_features=300, out_features=300, bias=False)
        (1): Linear(in_features=300, out_features=1, bias=False)
      )
    )
    (1): Attention(
      (linears): ModuleList(
        (0): Linear(in_features=100, out_features=100, bias=False)
        (1): Linear(in_features=100, out_features=1, bias=False)
      )
    )
    (2): Attention(
      (linears): ModuleList(
        (0): Linear(in_features=100, out_features=100, bias=False)
        (1): Linear(in_features=100, out_features=1, bias=False)
      )
    )
    (3): Attention(
      (linears): ModuleList(
        (0): Linear(in_features=100, out_features=100, bias=False)
        (1): Linear(in_features=100, out_features=1, bias=False)
      )
    )
  )
  (dropout): Dropout(p=0.4, inplace=False)
)
Epoch :  1 loss training:  138.61557939648628 Time :  23
accuracy train: 0.748738 val: 0.718182 test: 0.763014
max validation accuracy : 0.718182 max acc epoch : 1 test accuracy : 0.763014
Counter({0: 1255, 7: 1226, 3: 1220, 1: 970, 2: 856, 5: 829, 6: 739, 4: 596})

Epoch :  2 loss training:  75.39267840236425 Time :  42
…
last test_accuracy :  0.9675799086757991
========================================================================================================================================================================================================

date and time :  Wed Aug 16 23:18:36 2017
Namespace(batch_size=64, dataset='R8', debug=False, device=0, dropout=0.4, early_stop=50, epochs=400, filename='', hidden_dim=100, lda=False, lr=0.001, num_layers=5, num_mlp_layers=2, random_vec=False, seed=0, weight_decay=1e-07)
device :  cuda:0
Counter({5: 1624, 3: 1438, 0: 1372, 7: 1263, 1: 1194, 6: 577, 2: 186, 4: 37})
HGNNModel(
  (word_embeddings): Embedding(8232, 300, padding_idx=0)
  (h_gnn_layers): ModuleList(
    (0): HGNNLayer(
      (dropout): Dropout(p=0.4, inplace=False)
      (mlp): MLP(
        (linears): ModuleList(
          (0): Linear(in_features=300, out_features=100, bias=True)
          (1): Linear(in_features=100, out_features=100, bias=True)
        )
        (batch_norms): ModuleList(
          (0): BatchNorm1d(100, eps=1e-05, momentum=0.1, affine=True, track_running_stats=True)
        )
        (dropout): Dropout(p=0.4, inplace=False)
      )
      (mlp2): MLP(
        (linears): ModuleList(
          (0): Linear(in_features=100, out_features=100, bias=True)
          (1): Linear(in_features=100, out_features=100, bias=True)
        )
        (batch_norms): ModuleList(
          (0): BatchNorm1d(100, eps=1e-05, momentum=0.1, affine=True, track_running_stats=True)
        )
        (dropout): Dropout(p=0.4, inplace=False)
      )
      (batch_norms): BatchNorm1d(100, eps=1e-05, momentum=0.1, affine=True, track_running_stats=True)
      (gru): GRUCellMod(
        (W_ir): Linear(in_features=100, out_features=100, bias=True)
        (W_hr): Linear(in_features=100, out_features=100, bias=True)
        (W_in): Linear(in_features=100, out_features=100, bias=True)
        (W_hn): Linear(in_features=100, out_features=100, bias=True)
        (W_iz): Linear(in_features=100, out_features=100, bias=True)
        (W_hz): Linear(in_features=100, out_features=100, bias=True)
      )
    )
    (1): HGNNLayer(
      (dropout): Dropout(p=0.4, inplace=False)
      (mlp): MLP(
        (linears): ModuleList(
          (0): Linear(in_features=100, out_features=100, bias=True)
          (1): Linear(in_features=100, out_features=100, bias=True)
        )
        (batch_norms): ModuleList(
          (0): BatchNorm1d(100, eps=1e-05, momentum=0.1, affine=True, track_running_stats=True)
        )
        (dropout): Dropout(p=0.4, inplace=False)
      )
      (mlp2): MLP(
        (linears): ModuleList(
          (0): Linear(in_features=100, out_features=100, bias=True)
          (1): Linear(in_features=100, out_features=100, bias=True)
        )
        (batch_norms): ModuleList(
          (0): BatchNorm1d(100, eps=1e-05, momentum=0.1, affine=True, track_running_stats=True)
        )
        (dropout): Dropout(p=0.4, inplace=False)
      )
      (batch_norms): BatchNorm1d(100, eps=1e-05, momentum=0.1, affine=True, track_running_stats=True)
      (gru): GRUCellMod(
        (W_ir): Linear(in_features=100, out_features=100, bias=True)
        (W_hr): Linear(in_features=100, out_features=100, bias=True)
        (W_in): Linear(in_features=100, out_features=100, bias=True)
        (W_hn): Linear(in_features=100, out_features=100, bias=True)
        (W_iz): Linear(in_features=100, out_features=100, bias=True)
        (W_hz): Linear(in_features=100, out_features=100, bias=True)
      )
    )
    (2): HGNNLayer(
      (dropout): Dropout(p=0.4, inplace=False)
      (mlp): MLP(
        (linears): ModuleList(
          (0): Linear(in_features=100, out_features=100, bias=True)
          (1): Linear(in_features=100, out_features=100, bias=True)
        )
        (batch_norms): ModuleList(
          (0): BatchNorm1d(100, eps=1e-05, momentum=0.1, affine=True, track_running_stats=True)
        )
        (dropout): Dropout(p=0.4, inplace=False)
      )
      (mlp2): MLP(
        (linears): ModuleList(
          (0): Linear(in_features=100, out_features=100, bias=True)
          (1): Linear(in_features=100, out_features=100, bias=True)
        )
        (batch_norms): ModuleList(
          (0): BatchNorm1d(100, eps=1e-05, momentum=0.1, affine=True, track_running_stats=True)
        )
        (dropout): Dropout(p=0.4, inplace=False)
      )
      (batch_norms): BatchNorm1d(100, eps=1e-05, momentum=0.1, affine=True, track_running_stats=True)
      (gru): GRUCellMod(
        (W_ir): Linear(in_features=100, out_features=100, bias=True)
        (W_hr): Linear(in_features=100, out_features=100, bias=True)
        (W_in): Linear(in_features=100, out_features=100, bias=True)
        (W_hn): Linear(in_features=100, out_features=100, bias=True)
        (W_iz): Linear(in_features=100, out_features=100, bias=True)
        (W_hz): Linear(in_features=100, out_features=100, bias=True)
      )
    )
    (3): HGNNLayer(
      (dropout): Dropout(p=0.4, inplace=False)
      (mlp): MLP(
        (linears): ModuleList(
          (0): Linear(in_features=100, out_features=100, bias=True)
          (1): Linear(in_features=100, out_features=100, bias=True)
        )
        (batch_norms): ModuleList(
          (0): BatchNorm1d(100, eps=1e-05, momentum=0.1, affine=True, track_running_stats=True)
        )
        (dropout): Dropout(p=0.4, inplace=False)
      )
      (mlp2): MLP(
        (linears): ModuleList(
          (0): Linear(in_features=100, out_features=100, bias=True)
          (1): Linear(in_features=100, out_features=100, bias=True)
        )
        (batch_norms): ModuleList(
          (0): BatchNorm1d(100, eps=1e-05, momentum=0.1, affine=True, track_running_stats=True)
        )
        (dropout): Dropout(p=0.4, inplace=False)
      )
      (batch_norms): BatchNorm1d(100, eps=1e-05, momentum=0.1, affine=True, track_running_stats=True)
      (gru): GRUCellMod(
        (W_ir): Linear(in_features=100, out_features=100, bias=True)
        (W_hr): Linear(in_features=100, out_features=100, bias=True)
        (W_in): Linear(in_features=100, out_features=100, bias=True)
        (W_hn): Linear(in_features=100, out_features=100, bias=True)
        (W_iz): Linear(in_features=100, out_features=100, bias=True)
        (W_hz): Linear(in_features=100, out_features=100, bias=True)
      )
    )
  )
  (linears_prediction): ModuleList(
    (0): Linear(in_features=300, out_features=8, bias=True)
    (1): Linear(in_features=100, out_features=8, bias=True)
    (2): Linear(in_features=100, out_features=8, bias=True)
    (3): Linear(in_features=100, out_features=8, bias=True)
    (4): Linear(in_features=100, out_features=8, bias=True)
  )
  (graph_pool_layer): ModuleList(
    (0): Attention(
      (linears): ModuleList(
        (0): Linear(in_features=300, out_features=300, bias=False)
        (1): Linear(in_features=300, out_features=1, bias=False)
      )
    )
    (1): Attention(
      (linears): ModuleList(
        (0): Linear(in_features=100, out_features=100, bias=False)
        (1): Linear(in_features=100, out_features=1, bias=False)
      )
    )
    (2): Attention(
      (linears): ModuleList(
        (0): Linear(in_features=100, out_features=100, bias=False)
        (1): Linear(in_features=100, out_features=1, bias=False)
      )
    )
    (3): Attention(
      (linears): ModuleList(
        (0): Linear(in_features=100, out_features=100, bias=False)
        (1): Linear(in_features=100, out_features=1, bias=False)
      )
    )
    (4): Attention(
      (linears): ModuleList(
        (0): Linear(in_features=100, out_features=100, bias=False)
        (1): Linear(in_features=100, out_features=1, bias=False)
      )
    )
  )
  (dropout): Dropout(p=0.4, inplace=False)
)
Epoch :  1 loss training:  139.16990226507187 Time :  24
accuracy train: 0.751363 val: 0.721818 test: 0.760731
max validation accuracy : 0.721818 max acc epoch : 1 test accuracy : 0.760731
Counter({7: 1887, 6: 1766, 0: 1326, 1: 1309, 4: 637, 3: 606, 2: 133, 5: 27})

Epoch :  2 loss training:  79.27964279055595 Time :  44
…
