date and time :  Thu Apr  8 17:25:59 2021
Namespace(batch_size=64, dataset='R52', debug=False, device=0, dropout=0.4, early_stop=20, epochs=400, filename='', hidden_dim=200, lda=False, lr=0.001, num_layers=3, num_mlp_layers=2, random_vec=False, seed=0, weight_decay=1e-07)
device :  cuda:0
Counter({0: 9130})
HGNNModel(
  (word_embeddings): Embedding(9334, 300, padding_idx=0)
  (h_gnn_layers): ModuleList(
    (0): HGNNLayer(
      (dropout): Dropout(p=0.4, inplace=False)
      (mlp): MLP(
        (linears): ModuleList(
          (0): Linear(in_features=300, out_features=200, bias=True)
          (1): Linear(in_features=200, out_features=200, bias=True)
        )
        (batch_norms): ModuleList(
          (0): BatchNorm1d(200, eps=1e-05, momentum=0.1, affine=True, track_running_stats=True)
        )
        (dropout): Dropout(p=0.4, inplace=False)
      )
      (mlp2): MLP(
        (linears): ModuleList(
          (0): Linear(in_features=200, out_features=200, bias=True)
          (1): Linear(in_features=200, out_features=200, bias=True)
        )
        (batch_norms): ModuleList(
          (0): BatchNorm1d(200, eps=1e-05, momentum=0.1, affine=True, track_running_stats=True)
        )
        (dropout): Dropout(p=0.4, inplace=False)
      )
      (batch_norms): BatchNorm1d(200, eps=1e-05, momentum=0.1, affine=True, track_running_stats=True)
      (gru): GRUCellMod(
        (W_ir): Linear(in_features=200, out_features=200, bias=True)
        (W_hr): Linear(in_features=200, out_features=200, bias=True)
        (W_in): Linear(in_features=200, out_features=200, bias=True)
        (W_hn): Linear(in_features=200, out_features=200, bias=True)
        (W_iz): Linear(in_features=200, out_features=200, bias=True)
        (W_hz): Linear(in_features=200, out_features=200, bias=True)
      )
    )
    (1): HGNNLayer(
      (dropout): Dropout(p=0.4, inplace=False)
      (mlp): MLP(
        (linears): ModuleList(
          (0): Linear(in_features=200, out_features=200, bias=True)
          (1): Linear(in_features=200, out_features=200, bias=True)
        )
        (batch_norms): ModuleList(
          (0): BatchNorm1d(200, eps=1e-05, momentum=0.1, affine=True, track_running_stats=True)
        )
        (dropout): Dropout(p=0.4, inplace=False)
      )
      (mlp2): MLP(
        (linears): ModuleList(
          (0): Linear(in_features=200, out_features=200, bias=True)
          (1): Linear(in_features=200, out_features=200, bias=True)
        )
        (batch_norms): ModuleList(
          (0): BatchNorm1d(200, eps=1e-05, momentum=0.1, affine=True, track_running_stats=True)
        )
        (dropout): Dropout(p=0.4, inplace=False)
      )
      (batch_norms): BatchNorm1d(200, eps=1e-05, momentum=0.1, affine=True, track_running_stats=True)
      (gru): GRUCellMod(
        (W_ir): Linear(in_features=200, out_features=200, bias=True)
        (W_hr): Linear(in_features=200, out_features=200, bias=True)
        (W_in): Linear(in_features=200, out_features=200, bias=True)
        (W_hn): Linear(in_features=200, out_features=200, bias=True)
        (W_iz): Linear(in_features=200, out_features=200, bias=True)
        (W_hz): Linear(in_features=200, out_features=200, bias=True)
      )
    )
  )
  (linears_prediction): ModuleList(
    (0): Linear(in_features=300, out_features=52, bias=True)
    (1): Linear(in_features=200, out_features=52, bias=True)
    (2): Linear(in_features=200, out_features=52, bias=True)
  )
  (graph_pool_layer): ModuleList(
    (0): Attention(
      (linears): ModuleList(
        (0): Linear(in_features=300, out_features=300, bias=False)
        (1): Linear(in_features=300, out_features=1, bias=False)
      )
    )
    (1): Attention(
      (linears): ModuleList(
        (0): Linear(in_features=200, out_features=200, bias=False)
        (1): Linear(in_features=200, out_features=1, bias=False)
      )
    )
    (2): Attention(
      (linears): ModuleList(
        (0): Linear(in_features=200, out_features=200, bias=False)
        (1): Linear(in_features=200, out_features=1, bias=False)
      )
    )
  )
  (dropout): Dropout(p=0.4, inplace=False)
)
Epoch :  1 loss training:  246.41892158985138 Time :  185
accuracy train: 0.746951 val: 0.771341 test: 0.781323
max validation accuracy : 0.771341 max acc epoch : 1 test accuracy : 0.781323

Epoch :  2 loss training:  127.18301153182983 Time :  363
accuracy train: 0.842988 val: 0.830793 test: 0.848249
…
test accuracy :  0.9431906614785992
last test_accuracy :  0.9396887159533074
========================================================================================================================================================================================================

date and time :  Thu Apr  8 19:50:53 2021
Namespace(batch_size=64, dataset='R52', debug=False, device=0, dropout=0.4, early_stop=20, epochs=400, filename='', hidden_dim=200, lda=False, lr=0.001, num_layers=4, num_mlp_layers=1, random_vec=False, seed=0, weight_decay=1e-07)
device :  cuda:0
Counter({0: 9130})
HGNNModel(
  (word_embeddings): Embedding(9334, 300, padding_idx=0)
  (h_gnn_layers): ModuleList(
    (0): HGNNLayer(
      (dropout): Dropout(p=0.4, inplace=False)
      (mlp): MLP(
        (linears): ModuleList(
          (0): Linear(in_features=300, out_features=200, bias=True)
        )
        (batch_norms): ModuleList()
        (dropout): Dropout(p=0.4, inplace=False)
      )
      (mlp2): MLP(
        (linears): ModuleList(
          (0): Linear(in_features=200, out_features=200, bias=True)
        )
        (batch_norms): ModuleList()
        (dropout): Dropout(p=0.4, inplace=False)
      )
      (batch_norms): BatchNorm1d(200, eps=1e-05, momentum=0.1, affine=True, track_running_stats=True)
      (gru): GRUCellMod(
        (W_ir): Linear(in_features=200, out_features=200, bias=True)
        (W_hr): Linear(in_features=200, out_features=200, bias=True)
        (W_in): Linear(in_features=200, out_features=200, bias=True)
        (W_hn): Linear(in_features=200, out_features=200, bias=True)
        (W_iz): Linear(in_features=200, out_features=200, bias=True)
        (W_hz): Linear(in_features=200, out_features=200, bias=True)
      )
    )
    (1): HGNNLayer(
      (dropout): Dropout(p=0.4, inplace=False)
      (mlp): MLP(
        (linears): ModuleList(
          (0): Linear(in_features=200, out_features=200, bias=True)
        )
        (batch_norms): ModuleList()
        (dropout): Dropout(p=0.4, inplace=False)
      )
      (mlp2): MLP(
        (linears): ModuleList(
          (0): Linear(in_features=200, out_features=200, bias=True)
        )
        (batch_norms): ModuleList()
        (dropout): Dropout(p=0.4, inplace=False)
      )
      (batch_norms): BatchNorm1d(200, eps=1e-05, momentum=0.1, affine=True, track_running_stats=True)
      (gru): GRUCellMod(
        (W_ir): Linear(in_features=200, out_features=200, bias=True)
        (W_hr): Linear(in_features=200, out_features=200, bias=True)
        (W_in): Linear(in_features=200, out_features=200, bias=True)
        (W_hn): Linear(in_features=200, out_features=200, bias=True)
        (W_iz): Linear(in_features=200, out_features=200, bias=True)
        (W_hz): Linear(in_features=200, out_features=200, bias=True)
      )
    )
    (2): HGNNLayer(
      (dropout): Dropout(p=0.4, inplace=False)
      (mlp): MLP(
        (linears): ModuleList(
          (0): Linear(in_features=200, out_features=200, bias=True)
        )
        (batch_norms): ModuleList()
        (dropout): Dropout(p=0.4, inplace=False)
      )
      (mlp2): MLP(
        (linears): ModuleList(
          (0): Linear(in_features=200, out_features=200, bias=True)
        )
        (batch_norms): ModuleList()
        (dropout): Dropout(p=0.4, inplace=False)
      )
      (batch_norms): BatchNorm1d(200, eps=1e-05, momentum=0.1, affine=True, track_running_stats=True)
      (gru): GRUCellMod(
        (W_ir): Linear(in_features=200, out_features=200, bias=True)
        (W_hr): Linear(in_features=200, out_features=200, bias=True)
        (W_in): Linear(in_features=200, out_features=200, bias=True)
        (W_hn): Linear(in_features=200, out_features=200, bias=True)
        (W_iz): Linear(in_features=200, out_features=200, bias=True)
        (W_hz): Linear(in_features=200, out_features=200, bias=True)
      )
    )
  )
  (linears_prediction): ModuleList(
    (0): Linear(in_features=300, out_features=52, bias=True)
    (1): Linear(in_features=200, out_features=52, bias=True)
    (2): Linear(in_features=200, out_features=52, bias=True)
    (3): Linear(in_features=200, out_features=52, bias=True)
  )
  (graph_pool_layer): ModuleList(
    (0): Attention(
      (linears): ModuleList(
        (0): Linear(in_features=300, out_features=300, bias=False)
        (1): Linear(in_features=300, out_features=1, bias=False)
      )
    )
    (1): Attention(
      (linears): ModuleList(
        (0): Linear(in_features=200, out_features=200, bias=False)
        (1): Linear(in_features=200, out_features=1, bias=False)
      )
    )
    (2): Attention(
      (linears): ModuleList(
        (0): Linear(in_features=200, out_features=200, bias=False)
        (1): Linear(in_features=200, out_features=1, bias=False)
      )
    )
    (3): Attention(
      (linears): ModuleList(
        (0): Linear(in_features=200, out_features=200, bias=False)
        (1): Linear(in_features=200, out_features=1, bias=False)
      )
    )
  )
  (dropout): Dropout(p=0.4, inplace=False)
)
Epoch :  1 loss training:  223.38072872161865 Time :  14
accuracy train: 0.782520 val: 0.783537 test: 0.806615
max validation accuracy : 0.783537 max acc epoch : 1 test accuracy : 0.806615

Epoch :  2 loss training:  109.21405917406082 Time :  24
accuracy train: 0.858401 val: 0.841463 test: 0.858755
…
test accuracy :  0.9400778210116731
last test_accuracy :  0.9412451361867704
========================================================================================================================================================================================================

date and time :  Thu Apr  8 20:07:47 2021
Namespace(batch_size=64, dataset='R52', debug=False, device=0, dropout=0.4, early_stop=20, epochs=400, filename='', hidden_dim=200, lda=False, lr=0.001, num_layers=4, num_mlp_layers=2, random_vec=False, seed=0, weight_decay=1e-07)
device :  cuda:0
Counter({0: 9130})
HGNNModel(
  (word_embeddings): Embedding(9334, 300, padding_idx=0)
  (h_gnn_layers): ModuleList(
    (0): HGNNLayer(
      (dropout): Dropout(p=0.4, inplace=False)
      (mlp): MLP(
        (linears): ModuleList(
          (0): Linear(in_features=300, out_features=200, bias=True)
          (1): Linear(in_features=200, out_features=200, bias=True)
        )
        (batch_norms): ModuleList(
          (0): BatchNorm1d(200, eps=1e-05, momentum=0.1, affine=True, track_running_stats=True)
        )
        (dropout): Dropout(p=0.4, inplace=False)
      )
      (mlp2): MLP(
        (linears): ModuleList(
          (0): Linear(in_features=200, out_features=200, bias=True)
          (1): Linear(in_features=200, out_features=200, bias=True)
        )
        (batch_norms): ModuleList(
          (0): BatchNorm1d(200, eps=1e-05, momentum=0.1, affine=True, track_running_stats=True)
        )
        (dropout): Dropout(p=0.4, inplace=False)
      )
      (batch_norms): BatchNorm1d(200, eps=1e-05, momentum=0.1, affine=True, track_running_stats=True)
      (gru): GRUCellMod(
        (W_ir): Linear(in_features=200, out_features=200, bias=True)
        (W_hr): Linear(in_features=200, out_features=200, bias=True)
        (W_in): Linear(in_features=200, out_features=200, bias=True)
        (W_hn): Linear(in_features=200, out_features=200, bias=True)
        (W_iz): Linear(in_features=200, out_features=200, bias=True)
        (W_hz): Linear(in_features=200, out_features=200, bias=True)
      )
    )
    (1): HGNNLayer(
      (dropout): Dropout(p=0.4, inplace=False)
      (mlp): MLP(
        (linears): ModuleList(
          (0): Linear(in_features=200, out_features=200, bias=True)
          (1): Linear(in_features=200, out_features=200, bias=True)
        )
        (batch_norms): ModuleList(
          (0): BatchNorm1d(200, eps=1e-05, momentum=0.1, affine=True, track_running_stats=True)
        )
        (dropout): Dropout(p=0.4, inplace=False)
      )
      (mlp2): MLP(
        (linears): ModuleList(
          (0): Linear(in_features=200, out_features=200, bias=True)
          (1): Linear(in_features=200, out_features=200, bias=True)
        )
        (batch_norms): ModuleList(
          (0): BatchNorm1d(200, eps=1e-05, momentum=0.1, affine=True, track_running_stats=True)
        )
        (dropout): Dropout(p=0.4, inplace=False)
      )
      (batch_norms): BatchNorm1d(200, eps=1e-05, momentum=0.1, affine=True, track_running_stats=True)
      (gru): GRUCellMod(
        (W_ir): Linear(in_features=200, out_features=200, bias=True)
        (W_hr): Linear(in_features=200, out_features=200, bias=True)
        (W_in): Linear(in_features=200, out_features=200, bias=True)
        (W_hn): Linear(in_features=200, out_features=200, bias=True)
        (W_iz): Linear(in_features=200, out_features=200, bias=True)
        (W_hz): Linear(in_features=200, out_features=200, bias=True)
      )
    )
    (2): HGNNLayer(
      (dropout): Dropout(p=0.4, inplace=False)
      (mlp): MLP(
        (linears): ModuleList(
          (0): Linear(in_features=200, out_features=200, bias=True)
          (1): Linear(in_features=200, out_features=200, bias=True)
        )
        (batch_norms): ModuleList(
          (0): BatchNorm1d(200, eps=1e-05, momentum=0.1, affine=True, track_running_stats=True)
        )
        (dropout): Dropout(p=0.4, inplace=False)
      )
      (mlp2): MLP(
        (linears): ModuleList(
          (0): Linear(in_features=200, out_features=200, bias=True)
          (1): Linear(in_features=200, out_features=200, bias=True)
        )
        (batch_norms): ModuleList(
          (0): BatchNorm1d(200, eps=1e-05, momentum=0.1, affine=True, track_running_stats=True)
        )
        (dropout): Dropout(p=0.4, inplace=False)
      )
      (batch_norms): BatchNorm1d(200, eps=1e-05, momentum=0.1, affine=True, track_running_stats=True)
      (gru): GRUCellMod(
        (W_ir): Linear(in_features=200, out_features=200, bias=True)
        (W_hr): Linear(in_features=200, out_features=200, bias=True)
        (W_in): Linear(in_features=200, out_features=200, bias=True)
        (W_hn): Linear(in_features=200, out_features=200, bias=True)
        (W_iz): Linear(in_features=200, out_features=200, bias=True)
        (W_hz): Linear(in_features=200, out_features=200, bias=True)
      )
    )
  )
  (linears_prediction): ModuleList(
    (0): Linear(in_features=300, out_features=52, bias=True)
    (1): Linear(in_features=200, out_features=52, bias=True)
    (2): Linear(in_features=200, out_features=52, bias=True)
    (3): Linear(in_features=200, out_features=52, bias=True)
  )
  (graph_pool_layer): ModuleList(
    (0): Attention(
      (linears): ModuleList(
        (0): Linear(in_features=300, out_features=300, bias=False)
        (1): Linear(in_features=300, out_features=1, bias=False)
      )
    )
    (1): Attention(
      (linears): ModuleList(
        (0): Linear(in_features=200, out_features=200, bias=False)
        (1): Linear(in_features=200, out_features=1, bias=False)
      )
    )
    (2): Attention(
      (linears): ModuleList(
        (0): Linear(in_features=200, out_features=200, bias=False)
        (1): Linear(in_features=200, out_features=1, bias=False)
      )
    )
    (3): Attention(
      (linears): ModuleList(
        (0): Linear(in_features=200, out_features=200, bias=False)
        (1): Linear(in_features=200, out_features=1, bias=False)
      )
    )
  )
  (dropout): Dropout(p=0.4, inplace=False)
)
Epoch :  1 loss training:  241.06138455867767 Time :  20
accuracy train: 0.748814 val: 0.771341 test: 0.785992
max validation accuracy : 0.771341 max acc epoch : 1 test accuracy : 0.785992

Epoch :  2 loss training:  124.54108440876007 Time :  42
accuracy train: 0.850779 val: 0.839939 test: 0.856420
…
