date and time :  Thu Apr  1 12:20:05 2021
Namespace(batch_size=64, dataset='R8', debug=False, device=0, dropout=0.4, early_stop=100, epochs=400, filename='', hidden_dim=100, lda=False, lr=0.0001, num_layers=5, num_mlp_layers=2, random_vec=False, seed=0, weight_decay=1e-05)
device :  cuda:0
Counter({0: 1467, 3: 1321, 1: 1306, 2: 1251, 6: 1224, 5: 597, 7: 488, 4: 37})
HGNNModel(
  (word_embeddings): Embedding(8231, 300, padding_idx=0)
  (h_gnn_layers): ModuleList(
    (0): HGNNLayer(
      (dropout): Dropout(p=0.4, inplace=False)
      (mlp): MLP(
        (linears): ModuleList(
          (0): Linear(in_features=300, out_features=100, bias=True)
          (1): Linear(in_features=100, out_features=100, bias=True)
        )
        (batch_norms): ModuleList(
          (0): BatchNorm1d(100, eps=1e-05, momentum=0.1, affine=True, track_running_stats=True)
        )
        (dropout): Dropout(p=0.4, inplace=False)
      )
      (mlp2): MLP(
        (linears): ModuleList(
          (0): Linear(in_features=100, out_features=100, bias=True)
          (1): Linear(in_features=100, out_features=100, bias=True)
        )
        (batch_norms): ModuleList(
          (0): BatchNorm1d(100, eps=1e-05, momentum=0.1, affine=True, track_running_stats=True)
        )
        (dropout): Dropout(p=0.4, inplace=False)
      )
      (batch_norms): BatchNorm1d(100, eps=1e-05, momentum=0.1, affine=True, track_running_stats=True)
      (batch_norms2): BatchNorm1d(100, eps=1e-05, momentum=0.1, affine=True, track_running_stats=True)
      (gru): GRUCellMod(
        (W_ir): Linear(in_features=100, out_features=100, bias=True)
        (W_hr): Linear(in_features=100, out_features=100, bias=True)
        (W_in): Linear(in_features=100, out_features=100, bias=True)
        (W_hn): Linear(in_features=100, out_features=100, bias=True)
        (W_iz): Linear(in_features=100, out_features=100, bias=True)
        (W_hz): Linear(in_features=100, out_features=100, bias=True)
      )
    )
    (1): HGNNLayer(
      (dropout): Dropout(p=0.4, inplace=False)
      (mlp): MLP(
        (linears): ModuleList(
          (0): Linear(in_features=100, out_features=100, bias=True)
          (1): Linear(in_features=100, out_features=100, bias=True)
        )
        (batch_norms): ModuleList(
          (0): BatchNorm1d(100, eps=1e-05, momentum=0.1, affine=True, track_running_stats=True)
        )
        (dropout): Dropout(p=0.4, inplace=False)
      )
      (mlp2): MLP(
        (linears): ModuleList(
          (0): Linear(in_features=100, out_features=100, bias=True)
          (1): Linear(in_features=100, out_features=100, bias=True)
        )
        (batch_norms): ModuleList(
          (0): BatchNorm1d(100, eps=1e-05, momentum=0.1, affine=True, track_running_stats=True)
        )
        (dropout): Dropout(p=0.4, inplace=False)
      )
      (batch_norms): BatchNorm1d(100, eps=1e-05, momentum=0.1, affine=True, track_running_stats=True)
      (batch_norms2): BatchNorm1d(100, eps=1e-05, momentum=0.1, affine=True, track_running_stats=True)
      (gru): GRUCellMod(
        (W_ir): Linear(in_features=100, out_features=100, bias=True)
        (W_hr): Linear(in_features=100, out_features=100, bias=True)
        (W_in): Linear(in_features=100, out_features=100, bias=True)
        (W_hn): Linear(in_features=100, out_features=100, bias=True)
        (W_iz): Linear(in_features=100, out_features=100, bias=True)
        (W_hz): Linear(in_features=100, out_features=100, bias=True)
      )
    )
    (2): HGNNLayer(
      (dropout): Dropout(p=0.4, inplace=False)
      (mlp): MLP(
        (linears): ModuleList(
          (0): Linear(in_features=100, out_features=100, bias=True)
          (1): Linear(in_features=100, out_features=100, bias=True)
        )
        (batch_norms): ModuleList(
          (0): BatchNorm1d(100, eps=1e-05, momentum=0.1, affine=True, track_running_stats=True)
        )
        (dropout): Dropout(p=0.4, inplace=False)
      )
      (mlp2): MLP(
        (linears): ModuleList(
          (0): Linear(in_features=100, out_features=100, bias=True)
          (1): Linear(in_features=100, out_features=100, bias=True)
        )
        (batch_norms): ModuleList(
          (0): BatchNorm1d(100, eps=1e-05, momentum=0.1, affine=True, track_running_stats=True)
        )
        (dropout): Dropout(p=0.4, inplace=False)
      )
      (batch_norms): BatchNorm1d(100, eps=1e-05, momentum=0.1, affine=True, track_running_stats=True)
      (batch_norms2): BatchNorm1d(100, eps=1e-05, momentum=0.1, affine=True, track_running_stats=True)
      (gru): GRUCellMod(
        (W_ir): Linear(in_features=100, out_features=100, bias=True)
        (W_hr): Linear(in_features=100, out_features=100, bias=True)
        (W_in): Linear(in_features=100, out_features=100, bias=True)
        (W_hn): Linear(in_features=100, out_features=100, bias=True)
        (W_iz): Linear(in_features=100, out_features=100, bias=True)
        (W_hz): Linear(in_features=100, out_features=100, bias=True)
      )
    )
    (3): HGNNLayer(
      (dropout): Dropout(p=0.4, inplace=False)
      (mlp): MLP(
        (linears): ModuleList(
          (0): Linear(in_features=100, out_features=100, bias=True)
          (1): Linear(in_features=100, out_features=100, bias=True)
        )
        (batch_norms): ModuleList(
          (0): BatchNorm1d(100, eps=1e-05, momentum=0.1, affine=True, track_running_stats=True)
        )
        (dropout): Dropout(p=0.4, inplace=False)
      )
      (mlp2): MLP(
        (linears): ModuleList(
          (0): Linear(in_features=100, out_features=100, bias=True)
          (1): Linear(in_features=100, out_features=100, bias=True)
        )
        (batch_norms): ModuleList(
          (0): BatchNorm1d(100, eps=1e-05, momentum=0.1, affine=True, track_running_stats=True)
        )
        (dropout): Dropout(p=0.4, inplace=False)
      )
      (batch_norms): BatchNorm1d(100, eps=1e-05, momentum=0.1, affine=True, track_running_stats=True)
      (batch_norms2): BatchNorm1d(100, eps=1e-05, momentum=0.1, affine=True, track_running_stats=True)
      (gru): GRUCellMod(
        (W_ir): Linear(in_features=100, out_features=100, bias=True)
        (W_hr): Linear(in_features=100, out_features=100, bias=True)
        (W_in): Linear(in_features=100, out_features=100, bias=True)
        (W_hn): Linear(in_features=100, out_features=100, bias=True)
        (W_iz): Linear(in_features=100, out_features=100, bias=True)
        (W_hz): Linear(in_features=100, out_features=100, bias=True)
      )
    )
  )
  (linears_prediction): ModuleList(
    (0): Linear(in_features=300, out_features=8, bias=True)
    (1): Linear(in_features=100, out_features=8, bias=True)
    (2): Linear(in_features=100, out_features=8, bias=True)
    (3): Linear(in_features=100, out_features=8, bias=True)
    (4): Linear(in_features=100, out_features=8, bias=True)
  )
  (attention): ModuleList(
    (0): Attention(
      (linears): ModuleList(
        (0): Linear(in_features=300, out_features=300, bias=False)
        (1): Linear(in_features=300, out_features=1, bias=False)
      )
    )
    (1): Attention(
      (linears): ModuleList(
        (0): Linear(in_features=100, out_features=100, bias=False)
        (1): Linear(in_features=100, out_features=1, bias=False)
      )
    )
    (2): Attention(
      (linears): ModuleList(
        (0): Linear(in_features=100, out_features=100, bias=False)
        (1): Linear(in_features=100, out_features=1, bias=False)
      )
    )
    (3): Attention(
      (linears): ModuleList(
        (0): Linear(in_features=100, out_features=100, bias=False)
        (1): Linear(in_features=100, out_features=1, bias=False)
      )
    )
    (4): Attention(
      (linears): ModuleList(
        (0): Linear(in_features=100, out_features=100, bias=False)
        (1): Linear(in_features=100, out_features=1, bias=False)
      )
    )
  )
  (graph_pool_layer): ModuleList(
    (0): Attention(
      (linears): ModuleList(
        (0): Linear(in_features=300, out_features=300, bias=False)
        (1): Linear(in_features=300, out_features=1, bias=False)
      )
    )
    (1): Attention(
      (linears): ModuleList(
        (0): Linear(in_features=100, out_features=100, bias=False)
        (1): Linear(in_features=100, out_features=1, bias=False)
      )
    )
    (2): Attention(
      (linears): ModuleList(
        (0): Linear(in_features=100, out_features=100, bias=False)
        (1): Linear(in_features=100, out_features=1, bias=False)
      )
    )
    (3): Attention(
      (linears): ModuleList(
        (0): Linear(in_features=100, out_features=100, bias=False)
        (1): Linear(in_features=100, out_features=1, bias=False)
      )
    )
    (4): Attention(
      (linears): ModuleList(
        (0): Linear(in_features=100, out_features=100, bias=False)
        (1): Linear(in_features=100, out_features=1, bias=False)
      )
    )
  )
  (dropout): Dropout(p=0.4, inplace=False)
)
Epoch :  1 loss training:  [500.71396] Time :  208
accuracy train: 0.499495 val: 0.476364 test: 0.431507
max validation accuracy : 0.476364 max acc epoch : 1 test accuracy : 0.431507

Epoch :  2 loss training:  [329.1753] Time :  255
accuracy train: 0.542921 val: 0.496364 test: 0.536073
max validation accuracy : 0.496364 max acc epoch : 2 test accuracy : 0.536073
…
========================================================================================================================================================================================================

date and time :  Thu Apr  1 14:49:28 2021
Namespace(batch_size=64, dataset='R8', debug=False, device=0, dropout=0.4, early_stop=100, epochs=400, filename='', hidden_dim=100, lda=False, lr=0.0001, num_layers=4, num_mlp_layers=2, random_vec=False, seed=0, weight_decay=1e-05)
device :  cuda:0
Counter({0: 1467, 3: 1321, 1: 1306, 2: 1251, 6: 1224, 5: 597, 7: 488, 4: 37})
HGNNModel(
  (word_embeddings): Embedding(8231, 300, padding_idx=0)
  (h_gnn_layers): ModuleList(
    (0): HGNNLayer(
      (dropout): Dropout(p=0.4, inplace=False)
      (mlp): MLP(
        (linears): ModuleList(
          (0): Linear(in_features=300, out_features=100, bias=True)
          (1): Linear(in_features=100, out_features=100, bias=True)
        )
        (batch_norms): ModuleList(
          (0): BatchNorm1d(100, eps=1e-05, momentum=0.1, affine=True, track_running_stats=True)
        )
        (dropout): Dropout(p=0.4, inplace=False)
      )
      (mlp2): MLP(
        (linears): ModuleList(
          (0): Linear(in_features=100, out_features=100, bias=True)
          (1): Linear(in_features=100, out_features=100, bias=True)
        )
        (batch_norms): ModuleList(
          (0): BatchNorm1d(100, eps=1e-05, momentum=0.1, affine=True, track_running_stats=True)
        )
        (dropout): Dropout(p=0.4, inplace=False)
      )
      (batch_norms): BatchNorm1d(100, eps=1e-05, momentum=0.1, affine=True, track_running_stats=True)
      (batch_norms2): BatchNorm1d(100, eps=1e-05, momentum=0.1, affine=True, track_running_stats=True)
      (gru): GRUCellMod(
        (W_ir): Linear(in_features=100, out_features=100, bias=True)
        (W_hr): Linear(in_features=100, out_features=100, bias=True)
        (W_in): Linear(in_features=100, out_features=100, bias=True)
        (W_hn): Linear(in_features=100, out_features=100, bias=True)
        (W_iz): Linear(in_features=100, out_features=100, bias=True)
        (W_hz): Linear(in_features=100, out_features=100, bias=True)
      )
    )
    (1): HGNNLayer(
      (dropout): Dropout(p=0.4, inplace=False)
      (mlp): MLP(
        (linears): ModuleList(
          (0): Linear(in_features=100, out_features=100, bias=True)
          (1): Linear(in_features=100, out_features=100, bias=True)
        )
        (batch_norms): ModuleList(
          (0): BatchNorm1d(100, eps=1e-05, momentum=0.1, affine=True, track_running_stats=True)
        )
        (dropout): Dropout(p=0.4, inplace=False)
      )
      (mlp2): MLP(
        (linears): ModuleList(
          (0): Linear(in_features=100, out_features=100, bias=True)
          (1): Linear(in_features=100, out_features=100, bias=True)
        )
        (batch_norms): ModuleList(
          (0): BatchNorm1d(100, eps=1e-05, momentum=0.1, affine=True, track_running_stats=True)
        )
        (dropout): Dropout(p=0.4, inplace=False)
      )
      (batch_norms): BatchNorm1d(100, eps=1e-05, momentum=0.1, affine=True, track_running_stats=True)
      (batch_norms2): BatchNorm1d(100, eps=1e-05, momentum=0.1, affine=True, track_running_stats=True)
      (gru): GRUCellMod(
        (W_ir): Linear(in_features=100, out_features=100, bias=True)
        (W_hr): Linear(in_features=100, out_features=100, bias=True)
        (W_in): Linear(in_features=100, out_features=100, bias=True)
        (W_hn): Linear(in_features=100, out_features=100, bias=True)
        (W_iz): Linear(in_features=100, out_features=100, bias=True)
        (W_hz): Linear(in_features=100, out_features=100, bias=True)
      )
    )
    (2): HGNNLayer(
      (dropout): Dropout(p=0.4, inplace=False)
      (mlp): MLP(
        (linears): ModuleList(
          (0): Linear(in_features=100, out_features=100, bias=True)
          (1): Linear(in_features=100, out_features=100, bias=True)
        )
        (batch_norms): ModuleList(
          (0): BatchNorm1d(100, eps=1e-05, momentum=0.1, affine=True, track_running_stats=True)
        )
        (dropout): Dropout(p=0.4, inplace=False)
      )
      (mlp2): MLP(
        (linears): ModuleList(
          (0): Linear(in_features=100, out_features=100, bias=True)
          (1): Linear(in_features=100, out_features=100, bias=True)
        )
        (batch_norms): ModuleList(
          (0): BatchNorm1d(100, eps=1e-05, momentum=0.1, affine=True, track_running_stats=True)
        )
        (dropout): Dropout(p=0.4, inplace=False)
      )
      (batch_norms): BatchNorm1d(100, eps=1e-05, momentum=0.1, affine=True, track_running_stats=True)
      (batch_norms2): BatchNorm1d(100, eps=1e-05, momentum=0.1, affine=True, track_running_stats=True)
      (gru): GRUCellMod(
        (W_ir): Linear(in_features=100, out_features=100, bias=True)
        (W_hr): Linear(in_features=100, out_features=100, bias=True)
        (W_in): Linear(in_features=100, out_features=100, bias=True)
        (W_hn): Linear(in_features=100, out_features=100, bias=True)
        (W_iz): Linear(in_features=100, out_features=100, bias=True)
        (W_hz): Linear(in_features=100, out_features=100, bias=True)
      )
    )
  )
  (linears_prediction): ModuleList(
    (0): Linear(in_features=300, out_features=8, bias=True)
    (1): Linear(in_features=100, out_features=8, bias=True)
    (2): Linear(in_features=100, out_features=8, bias=True)
    (3): Linear(in_features=100, out_features=8, bias=True)
  )
  (attention): ModuleList(
    (0): Attention(
      (linears): ModuleList(
        (0): Linear(in_features=300, out_features=300, bias=False)
        (1): Linear(in_features=300, out_features=1, bias=False)
      )
    )
    (1): Attention(
      (linears): ModuleList(
        (0): Linear(in_features=100, out_features=100, bias=False)
        (1): Linear(in_features=100, out_features=1, bias=False)
      )
    )
    (2): Attention(
      (linears): ModuleList(
        (0): Linear(in_features=100, out_features=100, bias=False)
        (1): Linear(in_features=100, out_features=1, bias=False)
      )
    )
    (3): Attention(
      (linears): ModuleList(
        (0): Linear(in_features=100, out_features=100, bias=False)
        (1): Linear(in_features=100, out_features=1, bias=False)
      )
    )
  )
  (graph_pool_layer): ModuleList(
    (0): Attention(
      (linears): ModuleList(
        (0): Linear(in_features=300, out_features=300, bias=False)
        (1): Linear(in_features=300, out_features=1, bias=False)
      )
    )
    (1): Attention(
      (linears): ModuleList(
        (0): Linear(in_features=100, out_features=100, bias=False)
        (1): Linear(in_features=100, out_features=1, bias=False)
      )
    )
    (2): Attention(
      (linears): ModuleList(
        (0): Linear(in_features=100, out_features=100, bias=False)
        (1): Linear(in_features=100, out_features=1, bias=False)
      )
    )
    (3): Attention(
      (linears): ModuleList(
        (0): Linear(in_features=100, out_features=100, bias=False)
        (1): Linear(in_features=100, out_features=1, bias=False)
      )
    )
  )
  (dropout): Dropout(p=0.4, inplace=False)
)
Epoch :  1 loss training:  [452.28506] Time :  10
accuracy train: 0.507574 val: 0.490909 test: 0.438813
max validation accuracy : 0.490909 max acc epoch : 1 test accuracy : 0.438813

Epoch :  2 loss training:  [259.38434] Time :  17
accuracy train: 0.619067 val: 0.596364 test: 0.621461
max validation accuracy : 0.596364 max acc epoch : 2 test accuracy : 0.621461
…
========================================================================================================================================================================================================

date and time :  Thu Apr  1 15:45:04 2021
Namespace(batch_size=64, dataset='R8', debug=False, device=0, dropout=0.4, early_stop=100, epochs=400, filename='', hidden_dim=100, lda=False, lr=0.0001, num_layers=3, num_mlp_layers=2, random_vec=False, seed=0, weight_decay=1e-05)
device :  cuda:0
Counter({0: 1467, 3: 1321, 1: 1306, 2: 1251, 6: 1224, 5: 597, 7: 488, 4: 37})
HGNNModel(
  (word_embeddings): Embedding(8231, 300, padding_idx=0)
  (h_gnn_layers): ModuleList(
    (0): HGNNLayer(
      (dropout): Dropout(p=0.4, inplace=False)
      (mlp): MLP(
        (linears): ModuleList(
          (0): Linear(in_features=300, out_features=100, bias=True)
          (1): Linear(in_features=100, out_features=100, bias=True)
        )
        (batch_norms): ModuleList(
          (0): BatchNorm1d(100, eps=1e-05, momentum=0.1, affine=True, track_running_stats=True)
        )
        (dropout): Dropout(p=0.4, inplace=False)
      )
      (mlp2): MLP(
        (linears): ModuleList(
          (0): Linear(in_features=100, out_features=100, bias=True)
          (1): Linear(in_features=100, out_features=100, bias=True)
        )
        (batch_norms): ModuleList(
          (0): BatchNorm1d(100, eps=1e-05, momentum=0.1, affine=True, track_running_stats=True)
        )
        (dropout): Dropout(p=0.4, inplace=False)
      )
      (batch_norms): BatchNorm1d(100, eps=1e-05, momentum=0.1, affine=True, track_running_stats=True)
      (batch_norms2): BatchNorm1d(100, eps=1e-05, momentum=0.1, affine=True, track_running_stats=True)
      (gru): GRUCellMod(
        (W_ir): Linear(in_features=100, out_features=100, bias=True)
        (W_hr): Linear(in_features=100, out_features=100, bias=True)
        (W_in): Linear(in_features=100, out_features=100, bias=True)
        (W_hn): Linear(in_features=100, out_features=100, bias=True)
        (W_iz): Linear(in_features=100, out_features=100, bias=True)
        (W_hz): Linear(in_features=100, out_features=100, bias=True)
      )
    )
    (1): HGNNLayer(
      (dropout): Dropout(p=0.4, inplace=False)
      (mlp): MLP(
        (linears): ModuleList(
          (0): Linear(in_features=100, out_features=100, bias=True)
          (1): Linear(in_features=100, out_features=100, bias=True)
        )
        (batch_norms): ModuleList(
          (0): BatchNorm1d(100, eps=1e-05, momentum=0.1, affine=True, track_running_stats=True)
        )
        (dropout): Dropout(p=0.4, inplace=False)
      )
      (mlp2): MLP(
        (linears): ModuleList(
          (0): Linear(in_features=100, out_features=100, bias=True)
          (1): Linear(in_features=100, out_features=100, bias=True)
        )
        (batch_norms): ModuleList(
          (0): BatchNorm1d(100, eps=1e-05, momentum=0.1, affine=True, track_running_stats=True)
        )
        (dropout): Dropout(p=0.4, inplace=False)
      )
      (batch_norms): BatchNorm1d(100, eps=1e-05, momentum=0.1, affine=True, track_running_stats=True)
      (batch_norms2): BatchNorm1d(100, eps=1e-05, momentum=0.1, affine=True, track_running_stats=True)
      (gru): GRUCellMod(
        (W_ir): Linear(in_features=100, out_features=100, bias=True)
        (W_hr): Linear(in_features=100, out_features=100, bias=True)
        (W_in): Linear(in_features=100, out_features=100, bias=True)
        (W_hn): Linear(in_features=100, out_features=100, bias=True)
        (W_iz): Linear(in_features=100, out_features=100, bias=True)
        (W_hz): Linear(in_features=100, out_features=100, bias=True)
      )
    )
  )
  (linears_prediction): ModuleList(
    (0): Linear(in_features=300, out_features=8, bias=True)
    (1): Linear(in_features=100, out_features=8, bias=True)
    (2): Linear(in_features=100, out_features=8, bias=True)
  )
  (attention): ModuleList(
    (0): Attention(
      (linears): ModuleList(
        (0): Linear(in_features=300, out_features=300, bias=False)
        (1): Linear(in_features=300, out_features=1, bias=False)
      )
    )
    (1): Attention(
      (linears): ModuleList(
        (0): Linear(in_features=100, out_features=100, bias=False)
        (1): Linear(in_features=100, out_features=1, bias=False)
      )
    )
    (2): Attention(
      (linears): ModuleList(
        (0): Linear(in_features=100, out_features=100, bias=False)
        (1): Linear(in_features=100, out_features=1, bias=False)
      )
    )
  )
  (graph_pool_layer): ModuleList(
    (0): Attention(
      (linears): ModuleList(
        (0): Linear(in_features=300, out_features=300, bias=False)
        (1): Linear(in_features=300, out_features=1, bias=False)
      )
    )
    (1): Attention(
      (linears): ModuleList(
        (0): Linear(in_features=100, out_features=100, bias=False)
        (1): Linear(in_features=100, out_features=1, bias=False)
      )
    )
    (2): Attention(
      (linears): ModuleList(
        (0): Linear(in_features=100, out_features=100, bias=False)
        (1): Linear(in_features=100, out_features=1, bias=False)
      )
    )
  )
  (dropout): Dropout(p=0.4, inplace=False)
)
Epoch :  1 loss training:  [456.06964] Time :  15
accuracy train: 0.466168 val: 0.441818 test: 0.377169
max validation accuracy : 0.441818 max acc epoch : 1 test accuracy : 0.377169

Epoch :  2 loss training:  [233.9478] Time :  20
accuracy train: 0.645324 val: 0.587273 test: 0.608219
max validation accuracy : 0.587273 max acc epoch : 2 test accuracy : 0.608219
…
========================================================================================================================================================================================================

date and time :  Thu Apr  1 16:27:47 2021
Namespace(batch_size=64, dataset='R8', debug=False, device=0, dropout=0.4, early_stop=100, epochs=400, filename='', hidden_dim=100, lda=False, lr=0.0001, num_layers=2, num_mlp_layers=2, random_vec=False, seed=0, weight_decay=1e-05)
device :  cuda:0
Counter({0: 1467, 3: 1321, 1: 1306, 2: 1251, 6: 1224, 5: 597, 7: 488, 4: 37})
HGNNModel(
  (word_embeddings): Embedding(8231, 300, padding_idx=0)
  (h_gnn_layers): ModuleList(
    (0): HGNNLayer(
      (dropout): Dropout(p=0.4, inplace=False)
      (mlp): MLP(
        (linears): ModuleList(
          (0): Linear(in_features=300, out_features=100, bias=True)
          (1): Linear(in_features=100, out_features=100, bias=True)
        )
        (batch_norms): ModuleList(
          (0): BatchNorm1d(100, eps=1e-05, momentum=0.1, affine=True, track_running_stats=True)
        )
        (dropout): Dropout(p=0.4, inplace=False)
      )
      (mlp2): MLP(
        (linears): ModuleList(
          (0): Linear(in_features=100, out_features=100, bias=True)
          (1): Linear(in_features=100, out_features=100, bias=True)
        )
        (batch_norms): ModuleList(
          (0): BatchNorm1d(100, eps=1e-05, momentum=0.1, affine=True, track_running_stats=True)
        )
        (dropout): Dropout(p=0.4, inplace=False)
      )
      (batch_norms): BatchNorm1d(100, eps=1e-05, momentum=0.1, affine=True, track_running_stats=True)
      (batch_norms2): BatchNorm1d(100, eps=1e-05, momentum=0.1, affine=True, track_running_stats=True)
      (gru): GRUCellMod(
        (W_ir): Linear(in_features=100, out_features=100, bias=True)
        (W_hr): Linear(in_features=100, out_features=100, bias=True)
        (W_in): Linear(in_features=100, out_features=100, bias=True)
        (W_hn): Linear(in_features=100, out_features=100, bias=True)
        (W_iz): Linear(in_features=100, out_features=100, bias=True)
        (W_hz): Linear(in_features=100, out_features=100, bias=True)
      )
    )
  )
  (linears_prediction): ModuleList(
    (0): Linear(in_features=300, out_features=8, bias=True)
    (1): Linear(in_features=100, out_features=8, bias=True)
  )
  (attention): ModuleList(
    (0): Attention(
      (linears): ModuleList(
        (0): Linear(in_features=300, out_features=300, bias=False)
        (1): Linear(in_features=300, out_features=1, bias=False)
      )
    )
    (1): Attention(
      (linears): ModuleList(
        (0): Linear(in_features=100, out_features=100, bias=False)
        (1): Linear(in_features=100, out_features=1, bias=False)
      )
    )
  )
  (graph_pool_layer): ModuleList(
    (0): Attention(
      (linears): ModuleList(
        (0): Linear(in_features=300, out_features=300, bias=False)
        (1): Linear(in_features=300, out_features=1, bias=False)
      )
    )
    (1): Attention(
      (linears): ModuleList(
        (0): Linear(in_features=100, out_features=100, bias=False)
        (1): Linear(in_features=100, out_features=1, bias=False)
      )
    )
  )
  (dropout): Dropout(p=0.4, inplace=False)
)
Epoch :  1 loss training:  [241.19252] Time :  12
accuracy train: 0.680671 val: 0.654545 test: 0.695890
max validation accuracy : 0.654545 max acc epoch : 1 test accuracy : 0.695890

Epoch :  2 loss training:  [125.602646] Time :  17
accuracy train: 0.733589 val: 0.714545 test: 0.765297
max validation accuracy : 0.714545 max acc epoch : 2 test accuracy : 0.765297
…
