date and time :  Fri Mar 26 14:32:48 2021
Namespace(batch_size=128, dataset='R8', debug=False, device=0, dropout=0.4, early_stop=100, epochs=400, filename='', hidden_dim=100, lda=False, lr=0.001, num_layers=4, num_mlp_layers=2, random_vec=False, seed=0, weight_decay=1e-05)
device :  cuda:0
Counter({0: 1467, 3: 1321, 1: 1306, 2: 1251, 6: 1224, 5: 597, 7: 488, 4: 37})
HGNNModel(
  (word_embeddings): Embedding(8231, 300, padding_idx=0)
  (h_gnn_layers): ModuleList(
    (0): HGNNLayer(
      (dropout): Dropout(p=0.4, inplace=False)
      (mlp): MLP(
        (linears): ModuleList(
          (0): Linear(in_features=300, out_features=100, bias=True)
          (1): Linear(in_features=100, out_features=100, bias=True)
        )
        (batch_norms): ModuleList(
          (0): BatchNorm1d(100, eps=1e-05, momentum=0.1, affine=True, track_running_stats=True)
        )
        (dropout): Dropout(p=0.4, inplace=False)
      )
      (mlp2): MLP(
        (linears): ModuleList(
          (0): Linear(in_features=100, out_features=100, bias=True)
          (1): Linear(in_features=100, out_features=100, bias=True)
        )
        (batch_norms): ModuleList(
          (0): BatchNorm1d(100, eps=1e-05, momentum=0.1, affine=True, track_running_stats=True)
        )
        (dropout): Dropout(p=0.4, inplace=False)
      )
      (batch_norms): BatchNorm1d(100, eps=1e-05, momentum=0.1, affine=True, track_running_stats=True)
      (batch_norms2): BatchNorm1d(100, eps=1e-05, momentum=0.1, affine=True, track_running_stats=True)
      (gru): GRUCellMod(
        (W_ir): Linear(in_features=100, out_features=100, bias=True)
        (W_hr): Linear(in_features=100, out_features=100, bias=True)
        (W_in): Linear(in_features=100, out_features=100, bias=True)
        (W_hn): Linear(in_features=100, out_features=100, bias=True)
        (W_iz): Linear(in_features=100, out_features=100, bias=True)
        (W_hz): Linear(in_features=100, out_features=100, bias=True)
      )
    )
    (1): HGNNLayer(
      (dropout): Dropout(p=0.4, inplace=False)
      (mlp): MLP(
        (linears): ModuleList(
          (0): Linear(in_features=100, out_features=100, bias=True)
          (1): Linear(in_features=100, out_features=100, bias=True)
        )
        (batch_norms): ModuleList(
          (0): BatchNorm1d(100, eps=1e-05, momentum=0.1, affine=True, track_running_stats=True)
        )
        (dropout): Dropout(p=0.4, inplace=False)
      )
      (mlp2): MLP(
        (linears): ModuleList(
          (0): Linear(in_features=100, out_features=100, bias=True)
          (1): Linear(in_features=100, out_features=100, bias=True)
        )
        (batch_norms): ModuleList(
          (0): BatchNorm1d(100, eps=1e-05, momentum=0.1, affine=True, track_running_stats=True)
        )
        (dropout): Dropout(p=0.4, inplace=False)
      )
      (batch_norms): BatchNorm1d(100, eps=1e-05, momentum=0.1, affine=True, track_running_stats=True)
      (batch_norms2): BatchNorm1d(100, eps=1e-05, momentum=0.1, affine=True, track_running_stats=True)
      (gru): GRUCellMod(
        (W_ir): Linear(in_features=100, out_features=100, bias=True)
        (W_hr): Linear(in_features=100, out_features=100, bias=True)
        (W_in): Linear(in_features=100, out_features=100, bias=True)
        (W_hn): Linear(in_features=100, out_features=100, bias=True)
        (W_iz): Linear(in_features=100, out_features=100, bias=True)
        (W_hz): Linear(in_features=100, out_features=100, bias=True)
      )
    )
    (2): HGNNLayer(
      (dropout): Dropout(p=0.4, inplace=False)
      (mlp): MLP(
        (linears): ModuleList(
          (0): Linear(in_features=100, out_features=100, bias=True)
          (1): Linear(in_features=100, out_features=100, bias=True)
        )
        (batch_norms): ModuleList(
          (0): BatchNorm1d(100, eps=1e-05, momentum=0.1, affine=True, track_running_stats=True)
        )
        (dropout): Dropout(p=0.4, inplace=False)
      )
      (mlp2): MLP(
        (linears): ModuleList(
          (0): Linear(in_features=100, out_features=100, bias=True)
          (1): Linear(in_features=100, out_features=100, bias=True)
        )
        (batch_norms): ModuleList(
          (0): BatchNorm1d(100, eps=1e-05, momentum=0.1, affine=True, track_running_stats=True)
        )
        (dropout): Dropout(p=0.4, inplace=False)
      )
      (batch_norms): BatchNorm1d(100, eps=1e-05, momentum=0.1, affine=True, track_running_stats=True)
      (batch_norms2): BatchNorm1d(100, eps=1e-05, momentum=0.1, affine=True, track_running_stats=True)
      (gru): GRUCellMod(
        (W_ir): Linear(in_features=100, out_features=100, bias=True)
        (W_hr): Linear(in_features=100, out_features=100, bias=True)
        (W_in): Linear(in_features=100, out_features=100, bias=True)
        (W_hn): Linear(in_features=100, out_features=100, bias=True)
        (W_iz): Linear(in_features=100, out_features=100, bias=True)
        (W_hz): Linear(in_features=100, out_features=100, bias=True)
      )
    )
  )
  (linears_prediction): ModuleList(
    (0): Linear(in_features=300, out_features=8, bias=True)
    (1): Linear(in_features=100, out_features=8, bias=True)
    (2): Linear(in_features=100, out_features=8, bias=True)
    (3): Linear(in_features=100, out_features=8, bias=True)
  )
  (attention): ModuleList(
    (0): Attention(
      (linears): ModuleList(
        (0): Linear(in_features=300, out_features=300, bias=False)
        (1): Linear(in_features=300, out_features=1, bias=False)
      )
    )
    (1): Attention(
      (linears): ModuleList(
        (0): Linear(in_features=100, out_features=100, bias=False)
        (1): Linear(in_features=100, out_features=1, bias=False)
      )
    )
    (2): Attention(
      (linears): ModuleList(
        (0): Linear(in_features=100, out_features=100, bias=False)
        (1): Linear(in_features=100, out_features=1, bias=False)
      )
    )
    (3): Attention(
      (linears): ModuleList(
        (0): Linear(in_features=100, out_features=100, bias=False)
        (1): Linear(in_features=100, out_features=1, bias=False)
      )
    )
  )
  (graph_pool_layer): ModuleList(
    (0): Attention(
      (linears): ModuleList(
        (0): Linear(in_features=300, out_features=300, bias=False)
        (1): Linear(in_features=300, out_features=1, bias=False)
      )
    )
    (1): Attention(
      (linears): ModuleList(
        (0): Linear(in_features=100, out_features=100, bias=False)
        (1): Linear(in_features=100, out_features=1, bias=False)
      )
    )
    (2): Attention(
      (linears): ModuleList(
        (0): Linear(in_features=100, out_features=100, bias=False)
        (1): Linear(in_features=100, out_features=1, bias=False)
      )
    )
    (3): Attention(
      (linears): ModuleList(
        (0): Linear(in_features=100, out_features=100, bias=False)
        (1): Linear(in_features=100, out_features=1, bias=False)
      )
    )
  )
  (dropout): Dropout(p=0.4, inplace=False)
)
Epoch :  1 loss training:  175.6922780246241 Time :  10
accuracy train: 0.695819 val: 0.661818 test: 0.695434
max validation accuracy : 0.661818 max acc epoch : 1 test accuracy : 0.695434

Epoch :  2 loss training:  57.73291541310027 Time :  18
accuracy train: 0.823672 val: 0.796364 test: 0.857078
…
