date and time :  Tue Apr  6 22:11:00 2021
Namespace(batch_size=64, dataset='R8', debug=False, device=0, dropout=0.4, early_stop=100, epochs=400, filename='', hidden_dim=100, lda=False, lr=0.001, num_layers=3, num_mlp_layers=2, random_vec=False, seed=0, weight_decay=1e-07)
device :  cuda:0
Counter({5: 1624, 3: 1438, 0: 1372, 7: 1263, 1: 1194, 6: 577, 2: 186, 4: 37})
HGNNModel(
  (word_embeddings): Embedding(8232, 300, padding_idx=0)
  (h_gnn_layers): ModuleList(
    (0): HGNNLayer(
      (dropout): Dropout(p=0.4, inplace=False)
      (mlp): MLP(
        (linears): ModuleList(
          (0): Linear(in_features=300, out_features=100, bias=True)
          (1): Linear(in_features=100, out_features=100, bias=True)
        )
        (batch_norms): ModuleList(
          (0): BatchNorm1d(100, eps=1e-05, momentum=0.1, affine=True, track_running_stats=True)
        )
        (dropout): Dropout(p=0.4, inplace=False)
      )
      (mlp2): MLP(
        (linears): ModuleList(
          (0): Linear(in_features=100, out_features=100, bias=True)
          (1): Linear(in_features=100, out_features=100, bias=True)
        )
        (batch_norms): ModuleList(
          (0): BatchNorm1d(100, eps=1e-05, momentum=0.1, affine=True, track_running_stats=True)
        )
        (dropout): Dropout(p=0.4, inplace=False)
      )
      (batch_norms): BatchNorm1d(100, eps=1e-05, momentum=0.1, affine=True, track_running_stats=True)
      (gru): GRUCellMod(
        (W_ir): Linear(in_features=100, out_features=100, bias=True)
        (W_hr): Linear(in_features=100, out_features=100, bias=True)
        (W_in): Linear(in_features=100, out_features=100, bias=True)
        (W_hn): Linear(in_features=100, out_features=100, bias=True)
        (W_iz): Linear(in_features=100, out_features=100, bias=True)
        (W_hz): Linear(in_features=100, out_features=100, bias=True)
      )
    )
    (1): HGNNLayer(
      (dropout): Dropout(p=0.4, inplace=False)
      (mlp): MLP(
        (linears): ModuleList(
          (0): Linear(in_features=100, out_features=100, bias=True)
          (1): Linear(in_features=100, out_features=100, bias=True)
        )
        (batch_norms): ModuleList(
          (0): BatchNorm1d(100, eps=1e-05, momentum=0.1, affine=True, track_running_stats=True)
        )
        (dropout): Dropout(p=0.4, inplace=False)
      )
      (mlp2): MLP(
        (linears): ModuleList(
          (0): Linear(in_features=100, out_features=100, bias=True)
          (1): Linear(in_features=100, out_features=100, bias=True)
        )
        (batch_norms): ModuleList(
          (0): BatchNorm1d(100, eps=1e-05, momentum=0.1, affine=True, track_running_stats=True)
        )
        (dropout): Dropout(p=0.4, inplace=False)
      )
      (batch_norms): BatchNorm1d(100, eps=1e-05, momentum=0.1, affine=True, track_running_stats=True)
      (gru): GRUCellMod(
        (W_ir): Linear(in_features=100, out_features=100, bias=True)
        (W_hr): Linear(in_features=100, out_features=100, bias=True)
        (W_in): Linear(in_features=100, out_features=100, bias=True)
        (W_hn): Linear(in_features=100, out_features=100, bias=True)
        (W_iz): Linear(in_features=100, out_features=100, bias=True)
        (W_hz): Linear(in_features=100, out_features=100, bias=True)
      )
    )
  )
  (linears_prediction): ModuleList(
    (0): Linear(in_features=300, out_features=8, bias=True)
    (1): Linear(in_features=100, out_features=8, bias=True)
    (2): Linear(in_features=100, out_features=8, bias=True)
  )
  (graph_pool_layer): ModuleList(
    (0): Attention(
      (linears): ModuleList(
        (0): Linear(in_features=300, out_features=300, bias=False)
        (1): Linear(in_features=300, out_features=1, bias=False)
      )
    )
    (1): Attention(
      (linears): ModuleList(
        (0): Linear(in_features=100, out_features=100, bias=False)
        (1): Linear(in_features=100, out_features=1, bias=False)
      )
    )
    (2): Attention(
      (linears): ModuleList(
        (0): Linear(in_features=100, out_features=100, bias=False)
        (1): Linear(in_features=100, out_features=1, bias=False)
      )
    )
  )
  (dropout): Dropout(p=0.4, inplace=False)
)
Epoch :  1 loss training:  141.61700358986855 Time :  40
accuracy train: 0.739649 val: 0.709091 test: 0.757991
max validation accuracy : 0.709091 max acc epoch : 1 test accuracy : 0.757991
Counter({1: 1235, 3: 1195, 4: 1101, 6: 989, 7: 954, 5: 851, 0: 790, 2: 576})

Epoch :  2 loss training:  78.3256383407861 Time :  51
…
