date and time :  Thu Apr  8 00:50:19 2021
Namespace(batch_size=16, dataset='R8', debug=False, device=0, dropout=0.5, early_stop=50, epochs=400, filename='', hidden_dim=200, lda=False, lr=0.001, num_layers=4, num_mlp_layers=2, random_vec=False, seed=0, weight_decay=1e-07)
device :  cuda:0
Counter({0: 7691})
HGNNModel(
  (word_embeddings): Embedding(8232, 300, padding_idx=0)
  (h_gnn_layers): ModuleList(
    (0): HGNNLayer(
      (dropout): Dropout(p=0.5, inplace=False)
      (mlp): MLP(
        (linears): ModuleList(
          (0): Linear(in_features=300, out_features=200, bias=True)
          (1): Linear(in_features=200, out_features=200, bias=True)
        )
        (batch_norms): ModuleList(
          (0): BatchNorm1d(200, eps=1e-05, momentum=0.1, affine=True, track_running_stats=True)
        )
        (dropout): Dropout(p=0.5, inplace=False)
      )
      (mlp2): MLP(
        (linears): ModuleList(
          (0): Linear(in_features=200, out_features=200, bias=True)
          (1): Linear(in_features=200, out_features=200, bias=True)
        )
        (batch_norms): ModuleList(
          (0): BatchNorm1d(200, eps=1e-05, momentum=0.1, affine=True, track_running_stats=True)
        )
        (dropout): Dropout(p=0.5, inplace=False)
      )
      (batch_norms): BatchNorm1d(200, eps=1e-05, momentum=0.1, affine=True, track_running_stats=True)
      (gru): GRUCellMod(
        (W_ir): Linear(in_features=200, out_features=200, bias=True)
        (W_hr): Linear(in_features=200, out_features=200, bias=True)
        (W_in): Linear(in_features=200, out_features=200, bias=True)
        (W_hn): Linear(in_features=200, out_features=200, bias=True)
        (W_iz): Linear(in_features=200, out_features=200, bias=True)
        (W_hz): Linear(in_features=200, out_features=200, bias=True)
      )
    )
    (1): HGNNLayer(
      (dropout): Dropout(p=0.5, inplace=False)
      (mlp): MLP(
        (linears): ModuleList(
          (0): Linear(in_features=200, out_features=200, bias=True)
          (1): Linear(in_features=200, out_features=200, bias=True)
        )
        (batch_norms): ModuleList(
          (0): BatchNorm1d(200, eps=1e-05, momentum=0.1, affine=True, track_running_stats=True)
        )
        (dropout): Dropout(p=0.5, inplace=False)
      )
      (mlp2): MLP(
        (linears): ModuleList(
          (0): Linear(in_features=200, out_features=200, bias=True)
          (1): Linear(in_features=200, out_features=200, bias=True)
        )
        (batch_norms): ModuleList(
          (0): BatchNorm1d(200, eps=1e-05, momentum=0.1, affine=True, track_running_stats=True)
        )
        (dropout): Dropout(p=0.5, inplace=False)
      )
      (batch_norms): BatchNorm1d(200, eps=1e-05, momentum=0.1, affine=True, track_running_stats=True)
      (gru): GRUCellMod(
        (W_ir): Linear(in_features=200, out_features=200, bias=True)
        (W_hr): Linear(in_features=200, out_features=200, bias=True)
        (W_in): Linear(in_features=200, out_features=200, bias=True)
        (W_hn): Linear(in_features=200, out_features=200, bias=True)
        (W_iz): Linear(in_features=200, out_features=200, bias=True)
        (W_hz): Linear(in_features=200, out_features=200, bias=True)
      )
    )
    (2): HGNNLayer(
      (dropout): Dropout(p=0.5, inplace=False)
      (mlp): MLP(
        (linears): ModuleList(
          (0): Linear(in_features=200, out_features=200, bias=True)
          (1): Linear(in_features=200, out_features=200, bias=True)
        )
        (batch_norms): ModuleList(
          (0): BatchNorm1d(200, eps=1e-05, momentum=0.1, affine=True, track_running_stats=True)
        )
        (dropout): Dropout(p=0.5, inplace=False)
      )
      (mlp2): MLP(
        (linears): ModuleList(
          (0): Linear(in_features=200, out_features=200, bias=True)
          (1): Linear(in_features=200, out_features=200, bias=True)
        )
        (batch_norms): ModuleList(
          (0): BatchNorm1d(200, eps=1e-05, momentum=0.1, affine=True, track_running_stats=True)
        )
        (dropout): Dropout(p=0.5, inplace=False)
      )
      (batch_norms): BatchNorm1d(200, eps=1e-05, momentum=0.1, affine=True, track_running_stats=True)
      (gru): GRUCellMod(
        (W_ir): Linear(in_features=200, out_features=200, bias=True)
        (W_hr): Linear(in_features=200, out_features=200, bias=True)
        (W_in): Linear(in_features=200, out_features=200, bias=True)
        (W_hn): Linear(in_features=200, out_features=200, bias=True)
        (W_iz): Linear(in_features=200, out_features=200, bias=True)
        (W_hz): Linear(in_features=200, out_features=200, bias=True)
      )
    )
  )
  (linears_prediction): ModuleList(
    (0): Linear(in_features=300, out_features=8, bias=True)
    (1): Linear(in_features=200, out_features=8, bias=True)
    (2): Linear(in_features=200, out_features=8, bias=True)
    (3): Linear(in_features=200, out_features=8, bias=True)
  )
  (graph_pool_layer): ModuleList(
    (0): Attention(
      (linears): ModuleList(
        (0): Linear(in_features=300, out_features=300, bias=False)
        (1): Linear(in_features=300, out_features=1, bias=False)
      )
    )
    (1): Attention(
      (linears): ModuleList(
        (0): Linear(in_features=200, out_features=200, bias=False)
        (1): Linear(in_features=200, out_features=1, bias=False)
      )
    )
    (2): Attention(
      (linears): ModuleList(
        (0): Linear(in_features=200, out_features=200, bias=False)
        (1): Linear(in_features=200, out_features=1, bias=False)
      )
    )
    (3): Attention(
      (linears): ModuleList(
        (0): Linear(in_features=200, out_features=200, bias=False)
        (1): Linear(in_features=200, out_features=1, bias=False)
      )
    )
  )
  (dropout): Dropout(p=0.5, inplace=False)
)
Epoch :  1 loss training:  262.1218474507332 Time :  24
accuracy train: 0.913957 val: 0.901818 test: 0.942922
max validation accuracy : 0.901818 max acc epoch : 1 test accuracy : 0.942922

Epoch :  2 loss training:  114.37396517023444 Time :  46
accuracy train: 0.950515 val: 0.927273 test: 0.959817
…
